MARVIN/models/MARVIN_CHU_normal_final.pt (torch, 709065 bytes, 53 tensors)

p_c f4 [11]
000000 4f 57 2d c0 5f 25 9d bf 0f 11 e8 3f 76 70 9e bf
       -2.708454 -1.227703 1.8130206 -1.237807
000010 2d a0 12 bd 5a 58 67 c0 23 d2 32 c0 45 c2 31 c0
       -0.035797287 -3.6147676 -2.7940757 -2.7774823
000020 a9 72 35 bf e2 2f c4 3f db ee 77 c0
       -0.7087808 1.5327113 -3.8739536

q_c_x.blocks.0.net.0.weight f4 [64, 8]
000000 c4 d7 c2 bd b7 8b 22 3d f9 72 46 be 06 cc 85 be
       -0.0951381 0.039684024 -0.19379796 -0.2613222
000010 28 c3 1e 3e 28 b1 a9 3d cd 93 84 3d 85 54 29 3c
       0.15504134 0.08285743 0.06473503 0.010335092
000020 e2 a9 90 3e 44 d0 a8 3d a1 20 81 3b 7b fe a7 bc
       0.2825461 0.082428485 0.0039406572 -0.020507088
000030 3f ba 23 be d1 d8 d1 bd 67 11 2d be 23 3e 0c be
       -0.15989016 -0.102464326 -0.1690117 -0.13695578
000040 1b 85 89 be 33 5a 85 be 96 89 60 3c 22 76 bd bc
       -0.26859364 -0.2604538 0.013704678 -0.02312762
000050 8b 91 1f 3e 7a 51 33 3d 2e d0 5d bd c4 4b 2b 3e
       0.15582864 0.043778874 -0.054153614 0.16728121
000060 7c 87 98 bd 64 a1 c2 bc 40 2e 9a 3e 1a 39 e0 3d
       -0.074477166 -0.023758598 0.3011341 0.10948391
000070 a8 e0 2d be e8 ae 76 bb 25 fe ea bc 05 dd 4d bd
       -0.16980231 -0.0037640873 -0.028685639 -0.05025961
000080 48 f8 0c bc d1 23 94 3c d3 6a 83 3c 02 ca d6 bc
       -0.008604117 0.018083485 0.016042149 -0.026219372
000090 02 97 2f 3f 48 26 c1 3b f6 f4 c5 bd 38 12 f1 bd
       0.68589795 0.005894456 -0.09665863 -0.11771053
0000a0 43 b7 66 be 14 04 a2 3d 7c 78 36 3d f6 59 12 bd
       -0.22530846 0.07910934 0.044548497 -0.035730325
0000b0 b8 41 00 3f 51 88 99 bc 1a 5f 72 3d 05 d2 64 be
       0.5010028 -0.018741759 0.059172727 -0.22345741
0000c0 5a 44 18 be 88 28 02 3e 85 ab 1b 3e 40 0c 45 3e
       -0.14869824 0.12710774 0.15202148 0.19242954
0000d0 78 f4 42 3d 5e 81 56 be 1c bc 39 bd 86 d8 06 be
       0.047596425 -0.20947787 -0.04534541 -0.13168535
0000e0 61 22 bf be dd e7 04 3e b1 b7 32 3e 06 3f 33 3d
       -0.37330917 0.12979074 0.17452885 0.043761276
0000f0 39 c1 b1 bd ef c8 fb 3c fb c4 cd 3d 99 53 e6 bd
       -0.086794324 0.030735461 0.10047337 -0.11246414
000100 d4 ba 63 3d 56 f2 30 3d 8a 81 4c 3c be 84 dc bd
       0.055598095 0.04319986 0.012482056 -0.10767506
000110 db 3c 37 3e 26 f8 b0 3d 2d 51 89 be ba 49 ff bd
       0.17894308 0.086410806 -0.26819745 -0.12465234
000120 0a 98 3e bc 9d 68 a7 ba ba 25 98 3e 35 7c cc 3a
       -0.011632929 -0.0012772266 0.29716283 0.0015600981
000130 81 83 b5 3e 62 18 a9 bc 16 b7 11 be cf 4f ab bd
       0.35451892 -0.02064151 -0.14229998 -0.08364832
000140 98 26 f5 3d d2 25 25 bc dc f8 ee bc 38 b9 90 3b
       0.11970252 -0.010079818 -0.0291714 0.004416611
000150 e3 60 8d ba e2 7e 2f bd 71 e6 87 be 5e 79 97 3e
       -0.0010786321 -0.042845614 -0.26543 0.29584783
000160 91 d7 60 3c a8 b2 b9 3e 80 d9 0d bb c9 84 91 ba
       0.01372327 0.36269116 -0.0021644533 -0.0011102195
000170 ff da 5f bd 44 59 e6 bd 7a b7 17 3e fc fc 1d be
       -0.05465221 -0.11247495 0.14816085 -0.15428537
000180 9f 7a 32 bc cb 65 fb bd a8 1f 0e 3d 9b 1d 17 bd
       -0.010893493 -0.12275275 0.03469816 -0.03689347
000190 42 60 ae 3d f4 9d 5a bd 32 bb b5 bd 12 1c 7f be
       0.085144535 -0.053373292 -0.08873595 -0.24913052
0001a0 75 6a 8f bc fa 97 0f 3d ff 04 b1 bb 20 7d 8b 3e
       -0.017506817 0.035057046 -0.005402207 0.272439
0001b0 be 91 3d be 33 c5 c6 bc 6e c6 5a be 6d e9 19 bd
       -0.18512627 -0.024263954 -0.21364757 -0.037576128
0001c0 c4 12 cb bc 79 95 0b bc 1e 35 c5 3a 83 2e ad 3b
       -0.024789222 -0.008519524 0.0015045737 0.0052850856
0001d0 5b c8 f8 3c 4a dd 95 3b 16 c9 a2 3b 4d af da bb
       0.030368974 0.004573499 0.004967819 -0.0066737295
0001e0 f8 b9 45 be 54 36 84 bd 07 2a c9 bc df c4 65 bb
       -0.19309223 -0.06455675 -0.024556173 -0.0035059971
0001f0 a3 f4 b3 bd 2a fc 61 be 12 85 dc 3d 67 ea fd 3d
       -0.08786895 -0.22068849 0.10767569 0.12398224
000200 35 8c 8d 3d a6 62 22 be 90 fe 34 3d 26 35 94 bb
       0.06911508 -0.15857944 0.044188082 -0.0045229373
000210 cd 05 be 3b 15 c9 96 bc 6d db 15 be a7 2e 3d be
       0.0057990314 -0.01840643 -0.14634486 -0.18474828
000220 27 38 76 bd c4 fc 43 3c 70 50 fc bb 4f d7 51 3e
       -0.060112145 0.0119621195 -0.0077000186 0.2049229
000230 6c bd 8c 3e 34 06 b6 bd 7d d4 12 be 03 ca 38 be
       0.27488267 -0.08887902 -0.1433887 -0.18045811
000240 bc f5 e1 bd 90 4d 10 3d 87 23 ad 3e d0 8b 5d bd
       -0.11033198 0.03523022 0.33816168 -0.054088414
000250 77 64 06 bd b3 66 4d bd 69 82 8e ba d1 af 77 3d
       -0.032810654 -0.05014677 -0.0010872605 0.060470406
000260 6a 89 9f 3c 0e 45 ba bc 9d 41 8f be 77 ed dc 3c
       0.019474704 -0.022738006 -0.27979746 0.0269687
000270 fc 28 ae 3c 80 c4 ef bc 84 50 02 bd 99 97 60 3d
       0.021259777 -0.029268503 -0.031815067 0.054832075
000280 ed 1a ff bd 7c 42 8f 3d 62 4e 17 bc a0 2b 7e bd
       -0.124563076 0.06995103 -0.0092349965 -0.062053323
000290 2b f5 0f bd 52 54 fd bc 5b b7 a8 3d 77 1f 9e 3e
       -0.03514592 -0.030923996 0.08238097 0.3088338
0002a0 2e c5 90 be 90 39 83 3d 85 e7 ff 3c ce 65 b6 3c
       -0.28275436 0.064074636 0.031238327 0.022265341
0002b0 f6 02 ee bb 81 97 01 be 77 85 a1 bd de 1d d7 3b
       -0.0072635366 -0.1265545 -0.078867845 0.0065648397
0002c0 38 4b c8 3d 58 96 88 3e c4 13 11 3d 4b c7 8f 3b
       0.09779972 0.26677203 0.03541924 0.0043877712
0002d0 0e b3 84 3c d0 e2 12 3d 7a a7 14 bd 1c 52 7b be
       0.016198661 0.035860837 -0.03629253 -0.24543041
0002e0 26 1b 06 bd 97 db 1a 3b 29 3e 5d 3b 90 c8 ef 3c
       -0.032740735 0.002362942 0.0033758974 0.02927044
0002f0 75 4e 01 3d a9 4f af bc 17 37 85 bd 98 a1 2a bc
       0.031568963 -0.02140029 -0.06504648 -0.0104145035
000300 69 40 a1 3e 92 b7 34 bc 54 dc 38 ba 99 e3 96 bd
       0.31494454 -0.011030095 -0.00070518744 -0.073676296
000310 cc 2e 72 bd e7 51 0a 3d 41 47 af 3d fb f1 a9 be
       -0.05912666 0.033769514 0.085585125 -0.3319243
000320 88 55 c9 3d 26 c1 d3 bc ab 8a 8d 3d 63 93 0c 3e
       0.09830767 -0.025848936 0.069112144 0.13728099
000330 c1 aa fa 3d 4b 60 29 be c2 59 b7 bd d5 76 d4 3d
       0.122396 -0.16540639 -0.08952667 0.10374228
000340 b0 a7 b8 3e 50 40 e8 3c 31 58 40 bd 13 34 89 bc
       0.36065435 0.02835098 -0.046959106 -0.016748464
000350 5c 3b 43 bd 52 be d5 bd e4 07 42 bc 47 70 8d 3d
       -0.04766403 -0.10436691 -0.011842702 0.06906181
000360 e0 59 08 3d 7c b3 35 3c d5 89 98 bc 37 6e 7f bb
       0.033288836 0.011090156 -0.018620411 -0.0038975605
000370 64 d4 dd be 28 6e 86 bc 03 2d 4f 3d c5 e4 a2 3c
       -0.43326104 -0.016409948 0.050580036 0.019884476
000380 f6 c3 e7 3d 85 e3 74 3e 1a 64 22 bc 87 92 2a 3c
       0.113166735 0.23914917 -0.009911561 0.010410911
000390 ff 6b 0c 3e c7 e4 ca bd 63 48 7d be d1 57 67 3d
       0.13713072 -0.09906917 -0.24734645 0.056480233
0003a0 ac ff bb 3c bd f8 fd 3b 21 35 be bc 64 12 3d bd
       0.022949062 0.007750599 -0.023218693 -0.046160117
0003b0 c4 c9 8a 3c 55 a2 ed bb 9a 72 e0 bb 3d b6 0a 3c
       0.016941912 -0.0072520175 -0.006849599 0.008466301
0003c0 61 e2 9b bd f6 a6 a6 bd 37 5e 27 bd 27 ad 7c bc
       -0.07611538 -0.08137314 -0.040861335 -0.015422142
0003d0 73 51 f2 bd 1e a0 cc bc fb a1 a3 3e 5b e9 6a 3d
       -0.118319415 -0.024978694 0.3195952 0.05735145
0003e0 43 7f a6 bd 7f e2 86 3b b2 62 a2 bd d3 6c 56 be
       -0.08129742 0.004116356 -0.07928981 -0.2093995
0003f0 8c 08 5e be c7 93 bc bd f9 ef 69 3d 10 26 e8 3d
       -0.21682948 -0.09207874 0.05711362 0.11335385

q_c_x.blocks.0.net.0.bias f4 [64]
000000 48 22 56 3d 3d 65 c2 be 81 76 7f bd 58 ab 96 be
       0.052278787 -0.37967864 -0.062368874 -0.294276
000010 1d cb 1e be ba ab 04 be ee 92 98 be 75 05 03 be
       -0.15507169 -0.12956133 -0.29799598 -0.1279505
000020 03 be cc be 6e 98 31 be a4 01 ab be 6a 09 6f be
       -0.39988717 -0.17343304 -0.3339969 -0.23343435
000030 53 be f3 3c bb 65 b5 be d6 7a 69 be ca ab 5e 3d
       0.02975384 -0.35429177 -0.22800764 0.05436305
000040 a4 85 18 bf a1 f9 d2 be ee d8 36 bf cc c6 ef be
       -0.5957892 -0.41206077 -0.7142476 -0.46831357
000050 8e cd fd be d4 3c f3 be 11 50 89 be 60 02 c0 be
       -0.49570888 -0.47507346 -0.26818898 -0.37501812
000060 6d 9f 9d be 71 b2 ee be c3 00 fd be e0 fe 99 be
       -0.30785695 -0.46620515 -0.49414644 -0.30077267
000070 b2 ef 8e be 1c 91 8a be 5a f3 29 bf 82 fb bd be
       -0.27917248 -0.27063835 -0.6638695 -0.37105948
000080 65 2c dc be 09 27 21 bf 88 d2 91 be 57 32 b5 be
       -0.4300262 -0.6295019 -0.28480935 -0.3538997
000090 1f 25 bf bd a7 e8 71 be 27 8f 3a 3c ad 55 ab be
       -0.09333252 -0.23623906 0.011386669 -0.33463803
0000a0 ea 93 73 be 04 f8 aa be 12 24 ae be 05 c2 1f bf
       -0.23786893 -0.33392346 -0.34011894 -0.62405425
0000b0 91 20 4d be e2 c2 87 be 46 fa 86 be ac d6 51 bd
       -0.20031954 -0.2651587 -0.26362818 -0.051230118
0000c0 d5 60 a5 be 40 71 d4 be 17 4c a2 be ff 47 c7 be
       -0.3230044 -0.41492653 -0.31698677 -0.38922116
0000d0 61 00 0f bf 60 59 4a be 14 10 97 be 78 58 ec be
       -0.55859953 -0.19760656 -0.29504454 -0.46161246
0000e0 56 01 31 bf 99 4c 01 3e 36 89 05 bf fa 8c cf be
       -0.69142663 0.12626876 -0.5216249 -0.40537244
0000f0 33 87 9e be 07 67 d8 be da 00 9e be 0c d7 01 bf
       -0.30962524 -0.42266104 -0.30860025 -0.5071876

q_c_x.blocks.0.net.2.weight f4 [64, 64]
000000 70 2f c2 bd 39 01 12 3e f5 38 0b be c5 13 fd bd
       -0.09481704 0.14258279 -0.13595946 -0.12357286
000010 86 6b 17 be d0 87 8f 3e dc fe 5c 3d bf 09 c5 bd
       -0.1478711 0.28033304 0.05395399 -0.096209995
000020 00 b2 0e be b9 fa 5d 3e db a5 fe bc 3b d6 ab bd
       -0.13935089 0.21677674 -0.031084945 -0.083904706
000030 aa c1 78 3d 3e a1 81 bc 36 da 18 bc 1a f5 d4 3d
       0.060731567 -0.015823957 -0.009329369 0.10398312
000040 5d 4d cc bd b1 e6 04 be b9 c6 40 bf 37 7a 2b be
       -0.099756934 -0.12978627 -0.75303227 -0.1674584
000050 b4 3c 62 be 56 46 4e bd 1b 62 21 3e 3f fc 1c be
       -0.22093469 -0.050360046 0.1576008 -0.15330599
000060 5f 50 e5 3d e5 65 5b bd 7d 89 a2 bd 49 3f dc bc
       0.1119697 -0.05356397 -0.0793638 -0.026885645
000070 f8 c6 81 be 8c 42 99 bc 6d 42 b6 be fc fe 0d bd
       -0.25347114 -0.01870849 -0.35597554 -0.034667
000080 40 ce 63 3e 8c 7f 0e be ab 88 c5 bd 2d 8f 0e 3d
       0.22246647 -0.13915843 -0.09645208 0.03480451
000090 94 92 0c bd ef 60 e8 bd 70 9b fc 3d 6b 0b 05 be
       -0.034319475 -0.113466136 0.12334335 -0.12992637
0000a0 30 8f f6 bd 48 a3 a0 3d 28 46 00 be 08 cd e8 be
       -0.120390296 0.078436434 -0.12526762 -0.45468926
0000b0 18 94 43 3c 84 77 39 3e 4d b6 b8 bd 53 ba de bd
       0.011937164 0.18111998 -0.09019146 -0.10875382
0000c0 3d dd 73 bd cb f1 da bd 81 fe 09 bd 1a 0b 92 3d
       -0.05953716 -0.106906496 -0.03368998 0.07131024
0000d0 7b 29 25 3e ed 55 43 bd e8 23 d5 3d 6f 5a ba be
       0.16129105 -0.047689367 0.10407239 -0.3639712
0000e0 a0 a7 43 bf 52 32 3b bd 21 ef 83 be 5e c2 8b 3e
       -0.7642765 -0.045702286 -0.25768378 0.27296728
0000f0 ba b1 1f 3d 5a 87 ec be 17 6a e5 3c f5 94 61 bd
       0.038987853 -0.46197015 0.02800469 -0.055073697
000100 48 82 2f be 53 78 c3 be 99 e5 9e be 4b e5 b2 bd
       -0.17139542 -0.38177738 -0.31034544 -0.087351404
000110 90 9e 8b bf 29 3d aa 3e 0d 42 3e be dc 24 63 be
       -1.0907764 0.33249786 -0.18579884 -0.2218203
000120 59 1c 6d 3e e1 80 07 3e b8 70 1c bf 67 b7 f5 be
       0.23155345 0.13232757 -0.61109495 -0.47991487
000130 68 76 43 3e 54 82 7a be bf f8 47 3d ba 8d b0 3d
       0.19088137 -0.24463779 0.048821207 0.08620782
000140 2c 21 70 be 4e 2f dd be 46 32 25 be 38 38 e1 3d
       -0.23450154 -0.43200153 -0.16132459 0.10997051
000150 af 91 75 be 0b af ed 3d ac b3 8e be 66 07 01 3d
       -0.23981355 0.116056524 -0.27871454 0.031501196
000160 bb 06 8a 3d 7e 6d 63 3e 4a 68 9f bd 4d a3 5e be
       0.06739565 0.22209737 -0.077835634 -0.21741982
000170 f5 e8 25 bd a2 07 a5 3a 99 bd b4 3d 8b c9 ef bd
       -0.04050537 0.0012590776 0.088252254 -0.11708363
000180 15 ac 98 bc da 06 17 be 1b 19 8a 3d a1 78 3d 3e
       -0.018636743 -0.14748707 0.0674307 0.18503048
000190 5d e9 bb 3d a5 21 b6 bc d5 4b ce bd 67 ea df be
       0.0917537 -0.02223284 -0.100730576 -0.43733522
0001a0 b0 a9 9e bd 74 cb df bd 65 6f 50 be 36 06 e4 be
       -0.07747209 -0.109274775 -0.20354994 -0.4453599
0001b0 83 b2 2c 3e 85 f5 02 3d ad f9 6e bd db 79 9f bc
       0.16864972 0.031972427 -0.058343578 -0.019467285
0001c0 63 b6 b2 bd 5b db 08 be 4b 0b 58 bd 6a 2c ea bd
       -0.08726194 -0.13364927 -0.052745145 -0.114342526
0001d0 16 76 27 3d 32 45 7a bd ea cc da 3d fc 34 aa be
       0.0408841 -0.061101146 0.106836155 -0.3324355
0001e0 bf 2d 2b 3e 8e 6c 84 be ec 07 43 3e 07 e3 e1 bd
       0.1671667 -0.2586407 0.1904599 -0.1102963
0001f0 25 24 a7 3d 54 30 67 bf a8 05 af bd 66 8a f8 be
       0.08161191 -0.9030812 -0.08546001 -0.4854309
000200 c3 d1 8c 3b fc 2e 04 bf e3 37 30 3e 28 ea 9b 3d
       0.0042974665 -0.5163419 0.17208819 0.07613021
000210 ab e9 3d 3e 8b 79 33 be 5b 46 d1 3d 44 e2 b7 bc
       0.18546169 -0.17526834 0.10218497 -0.022446759
000220 9d ae b5 be 7e d4 46 3e ca a9 05 3e a1 e6 e5 bc
       -0.35484782 0.19416997 0.1305305 -0.028064074
000230 87 94 01 bf 6e 4f 34 3c e3 08 51 bd 86 d8 b3 3d
       -0.5061726 0.011005266 -0.051033866 0.08781533
000240 21 5a df 3e a3 c8 c1 be da fc 0c 3e 9e eb 57 3e
       0.4362345 -0.37848386 0.1376833 0.21085975
000250 fd c6 19 3e 05 3f e9 3c 21 33 81 3c e1 9a b8 bd
       0.15017314 0.028472433 0.01577145 -0.09013916
000260 9f 2a 82 3e 41 ce 35 be fa df 14 3c 07 d7 7a bc
       0.25423142 -0.17754461 0.009086603 -0.015310056
000270 46 3e 55 3e 29 a6 cd bd 08 c7 36 bd c3 73 80 3e
       0.20824537 -0.10041458 -0.044623405 0.2508832
000280 50 d8 8a be b7 9d c1 3c 38 ec 84 bd ef 67 84 be
       -0.27118158 0.023634775 -0.06490368 -0.25860545
000290 44 9b 6d bd ec af e8 be a4 50 d4 bd 74 1b 49 bf
       -0.0580094 -0.45446718 -0.103669435 -0.78557515
0002a0 6d b1 8b bd 80 e2 7c be 72 e1 9e bc 7b 15 8f 3c
       -0.06820951 -0.24695778 -0.01939461 0.017466297
0002b0 b0 12 0f be 73 bc 43 bd 22 9b 1e be b2 77 49 be
       -0.13971972 -0.04778714 -0.15488866 -0.19674566
0002c0 46 14 0b 3e 8d 3f 5b bd 98 8d e1 bd 67 98 52 3d
       0.13581952 -0.053527404 -0.11013335 0.051414873
0002d0 fe 61 e2 be 12 d0 d0 3d a7 2a fd be 2c 36 0b 3e
       -0.44215387 0.10195936 -0.49446604 0.13594884
0002e0 ad 18 09 3e 54 22 80 be 31 59 2e be 99 ef af ba
       0.1338832 -0.2502619 -0.17026211 -0.0013422846
0002f0 b1 78 1f bf d6 e8 9b be dc c5 ef bc 00 8a 8c be
       -0.62293535 -0.30451077 -0.029269151 -0.27449036
000300 14 22 95 bd e3 83 64 3e 84 92 06 bd 7f b4 3c be
       -0.072818905 0.22315936 -0.032854572 -0.18428229
000310 03 f9 55 bc d8 82 36 3e 96 32 49 be 44 31 4f bb
       -0.013059857 0.1782335 -0.19648203 -0.0031615058
000320 7b 71 2e be 60 45 60 3e 30 ed 36 3d 2b 66 5d bd
       -0.17035477 0.21901464 0.044659793 -0.054052513
000330 45 a4 95 be fa 26 2a bd 81 b2 ff 3d 0d be 02 3e
       -0.2922689 -0.041541077 0.12485219 0.12767811
000340 d8 c4 10 be 32 9b 02 bf b3 86 14 bf be 10 7b be
       -0.1413759 -0.5101806 -0.58018035 -0.24518105
000350 94 06 36 be b8 c5 4e 3e 7f 70 5e 3e c9 8d 3c 3b
       -0.17775947 0.20192611 0.21722601 0.0028771034
000360 53 f6 f2 3c c5 05 44 3e 93 c3 e4 bd 59 a7 eb bc
       0.029658472 0.19142826 -0.11170115 -0.028766321
000370 45 5c f3 3d 83 21 29 3d d8 e6 0c be f4 5c ff 3d
       0.118828334 0.041291725 -0.13759935 0.12468901
000380 5a dd 3e 3c a8 c9 b3 be 0b 88 41 3e 8f 83 98 be
       0.011649454 -0.3511479 0.18899553 -0.2978787
000390 8e 4a 13 3d 0d 29 d7 bd 5f 8f 62 3d c4 bf 98 be
       0.035959773 -0.10505877 0.05531251 -0.29833806
0003a0 eb b1 3d 3c 5a 3c dc bd d9 5a 6e bd 51 be c9 3d
       0.0115780635 -0.10753699 -0.058192108 0.09850753
0003b0 96 93 42 bd f9 c9 90 3d 6f 30 cd bd 15 c1 86 3d
       -0.04750403 0.07069773 -0.100190036 0.06579796
0003c0 a7 0c 10 bd 0e ce bd bd 6e e2 57 3c 43 15 a4 3d
       -0.035168316 -0.092678174 0.013176544 0.08011868
0003d0 99 5d 66 3c 41 dd 2c be da 5c 3d bc d5 b9 11 be
       0.014060401 -0.16881277 -0.011557782 -0.14231046
0003e0 54 4e c9 be c7 93 c7 be 6b 32 1e be 91 a8 d0 3e
       -0.39317572 -0.38979933 -0.1544892 0.40753606
0003f0 01 d5 8b be c3 06 be be 61 11 83 bd 24 4e 62 be
       -0.27310947 -0.37114534 -0.06399799 -0.22100121

q_c_x.blocks.0.net.2.bias f4 [64]
000000 b9 fb da 3c 18 b8 03 3e 63 df e3 3c b9 96 7b 3d
       0.026731359 0.12863195 0.02781648 0.061423037
000010 04 75 a5 be c8 bc 88 be 63 0d 40 3e 60 1a c5 3d
       -0.32315838 -0.2670653 0.18755107 0.09624171
000020 e3 44 8a bd e7 d4 d2 bc 81 fb f8 bc 71 4b 82 bd
       -0.0675142 -0.025736285 -0.030393364 -0.063620456
000030 eb fd 8f 3d 82 a0 45 bd c2 f4 d8 bc 6b 0f 5e bd
       0.07030853 -0.048248775 -0.026483897 -0.054213922
000040 82 27 df 3c d9 e2 b5 bb 44 f8 3c 3e a6 51 74 be
       0.027240518 -0.005550724 0.18454081 -0.23859271
000050 48 ab 4d bd be 70 68 bd 4e 86 ff bc f5 4c 51 be
       -0.050212175 -0.056748144 -0.031191971 -0.20439513
000060 9d b5 35 bd 94 6c 4f 3c 74 18 83 3d f9 8e 3d bd
       -0.044362653 0.012660164 0.064011484 -0.046278927
000070 36 e4 12 3d 05 04 65 bd d1 6a 46 3e b9 7f 63 3d
       0.03586217 -0.055912036 0.19376685 0.055541728
000080 fc f2 e0 3d d0 f0 c7 3d 4e 8e 4d 3d 6a 75 69 3c
       0.109838456 0.09762728 0.05018454 0.014249185
000090 08 ed d2 bd ba dc d8 bd bf 45 59 3a d5 d8 3f bd
       -0.102991164 -0.10588975 0.0008288286 -0.046837647
0000a0 16 3e 50 3d 10 c7 a1 bc 99 9f 6f 3d 95 7a 06 3c
       0.05084046 -0.01974824 0.058501814 0.008207937
0000b0 e8 88 09 3e ce e5 05 bd b0 cc c2 3d db 6c bc bc
       0.13431132 -0.032689862 0.09511697 -0.023001125
0000c0 dc 16 83 3e b5 79 b2 3d c0 fc 1b 3d 4d cf b0 3b
       0.25603378 0.0871462 0.038082838 0.005395806
0000d0 19 80 9c 3d 19 90 f9 bc 45 c0 7d be 4c 77 a0 bc
       0.0764162 -0.030464219 -0.24780376 -0.019588135
0000e0 b0 4e c2 3c 76 7e d6 3d b5 e0 dc 3d c4 d4 0c be
       0.023719162 0.10473339 0.10785047 -0.13753039
0000f0 a0 70 9f be 98 5a a9 3e 92 c0 a5 3d 63 89 63 3d
       -0.31140614 0.3307693 0.080933705 0.055550944

q_c_x.blocks.0.shortcut.weight f4 [64, 8]
000000 9c d8 eb 3e d2 de 77 bd 7d 2c 6d 3d 59 15 bd 3b
       0.46063697 -0.060515232 0.057903755 0.005770367
000010 de 5d 57 3e 45 a5 0b 3d e8 15 35 be 49 d8 18 bf
       0.21031901 0.03409316 -0.17684138 -0.59705025
000020 1a a8 ba 3d 81 4e e8 be 26 87 10 bb ba f8 0a 3c
       0.09114094 -0.45372394 -0.002205321 0.008482153
000030 cd 0c 49 bc 8d 4a 5c be d9 4e 28 3e 60 47 0e bb
       -0.012271118 -0.21512814 0.16436328 -0.0021710023
000040 43 04 19 be 0b df 6b 3d 8b 7c 3b 3d c0 36 cd 3b
       -0.14943032 0.057585757 0.04577307 0.00626263
000050 96 1f 9d bc b8 e4 ab bc 84 f7 8e be 47 50 0d 3f
       -0.0191801 -0.020983085 -0.27923214 0.5520062
000060 d9 47 6f 3d 83 19 77 3d 37 df 35 be 2b e3 fb bb
       0.05841813 0.060327064 -0.17760931 -0.0076869926
000070 72 2f f3 be 91 ff b1 3d b3 65 46 be 23 30 d2 3e
       -0.47497135 0.086913235 -0.19374733 0.4105235
000080 64 dd 91 bb 7d 6d 8d bd 06 39 43 bc ef 94 ce bc
       -0.0044514406 -0.06905649 -0.011915451 -0.025217501
000090 11 23 05 3e a2 1f 28 3f 50 1b f3 bc 8b 37 84 bc
       0.13001658 0.6567327 -0.02967611 -0.016139766
0000a0 07 f4 a0 bd e6 66 57 be e6 44 39 bd 22 b3 0a bd
       -0.078590445 -0.21035346 -0.045231722 -0.03386224
0000b0 85 2c a2 3e 0b 10 b4 bc 37 f3 c4 3e 9f f8 e3 bc
       0.3167459 -0.021980306 0.38466808 -0.027828513
0000c0 bc 1b 7b be 9c 70 33 3c 4b e0 90 bd ab 07 2e bc
       -0.24522299 0.010952141 -0.070740305 -0.010621945
0000d0 12 64 df 3b 1a be b5 bc 48 8d cc bd c3 4f 11 3d
       0.006817349 -0.022185374 -0.09987885 0.035476457
0000e0 e5 56 61 3d b6 11 b0 bd 34 91 95 3d 15 e7 34 bd
       0.05501451 -0.08597128 0.07303086 -0.04416569
0000f0 1e f1 20 3e 3f 82 34 be 4e 4a 79 be 2a e1 c0 bd
       0.15716979 -0.1762781 -0.24344751 -0.09417947
000100 ee 9d a4 bd d7 e8 96 bd 02 b8 3b 3f 78 e8 5e be
       -0.08037935 -0.073686294 0.7332765 -0.21768367
000110 f0 69 79 be 9e 53 e7 bd 18 0e a0 3d 4a 0d 9d 3c
       -0.24356818 -0.112952456 0.07815188 0.019171376
000120 18 ea ad bd 2a 4e 0b be 01 45 bc be 4b c6 90 bd
       -0.084919155 -0.13604036 -0.36771396 -0.070690714
000130 c0 db bb be 29 0a 85 bb f9 78 f2 3d 84 89 03 3f
       -0.36691093 -0.004060049 0.1183948 0.5138171
000140 3a 62 19 3d de 68 31 bf 13 09 a3 ba b0 d2 f2 bc
       0.03744719 -0.6930064 -0.0012438617 -0.02964148
000150 ad 44 59 bd bb c2 c6 3e 90 53 2d be 71 34 61 3e
       -0.05304401 0.38820443 -0.16926408 0.21992661
000160 13 20 b2 3d 96 e8 e6 3e b6 9f 02 be 32 e4 08 be
       0.08697524 0.45099324 -0.12756237 -0.133683
000170 aa 80 cb bd 1b 94 ef 3d 44 36 8a be 9a 37 10 bf
       -0.0993665 0.11698171 -0.26994526 -0.5633484
000180 6e 8e 80 3d 36 58 00 bf 77 b6 dc bc f4 4e e5 3c
       0.06277166 -0.501346 -0.026942475 0.02799175
000190 b2 b0 8d 3e cd 9d d1 bd ac 61 19 3e 6d 2b 81 be
       0.2767387 -0.10235176 0.14978665 -0.25228444
0001a0 8d 40 37 bf 84 98 90 bd 4b 11 16 3e aa 52 0a bd
       -0.7158287 -0.0706034 0.14655034 -0.03377024
0001b0 12 eb e1 3e cd 04 f8 3d 56 f9 72 bd fb d3 32 3e
       0.44124657 0.12110291 -0.059319817 0.17463677
0001c0 cd a9 c9 3e a4 f1 ae bd dc 54 a1 3e 15 9b 04 3e
       0.3938736 -0.08542183 0.31510055 0.12949784
0001d0 4f ae b2 be c8 40 54 3c bc 89 42 bf bb 7b 96 3d
       -0.34898612 0.012954898 -0.75991416 0.073478185
0001e0 3a 13 a2 3c c1 7e 33 bd b0 3e a1 3d 6d 82 8f 3d
       0.019784559 -0.043822054 0.07873285 0.070072986
0001f0 9c b4 4f bf d9 52 1f 3e 73 e6 9e 3e 24 cd d1 bd
       -0.81134963 0.15558948 0.31035194 -0.102442056
000200 df 13 81 bd 9c 6a 40 3d e1 c7 59 bd a6 28 8f 3c
       -0.06302618 0.04697667 -0.053169135 0.017475437
000210 a0 cb da 3f a0 f2 02 bc a3 08 4c 3d cb d2 1b 3d
       1.7093391 -0.007992417 0.049812924 0.038042825
000220 39 fa 57 be d8 4c 38 bd fa e9 88 be b9 cc 90 bd
       -0.21091546 -0.04499516 -0.2674101 -0.07070298
000230 80 0c 40 3f 62 e3 5c bd 78 35 69 bd 81 51 31 3d
       0.75019073 -0.053927787 -0.056935757 0.04329062
000240 52 38 94 3d 01 f8 b2 3d f3 6e 1d bd 12 fd 92 bd
       0.07237305 0.08738709 -0.038435888 -0.071771756
000250 4c f1 52 be 8d 09 08 bd b6 c8 18 3d b1 74 87 bd
       -0.2059986 -0.033212233 0.037300788 -0.06614054
000260 4d bc 39 3d b3 7f 27 3c d0 8c 40 be e1 00 4d 3e
       0.045345593 0.010223317 -0.18803716 0.20019867
000270 d7 93 f9 3e 18 5b 16 be c2 d7 9f 3d a8 df 8c bd
       0.48745605 -0.14683187 0.078048244 -0.068785965
000280 7c 73 37 3f de 7d 2a bd 62 2f 91 bc ea d9 9e bb
       0.7166059 -0.041623943 -0.01772279 -0.0048477547
000290 05 96 dd 3d c1 4a fc bc aa f6 dd ba 8f 91 05 3d
       0.108196296 -0.030797364 -0.0016934474 0.03260952
0002a0 05 73 53 be d5 10 f2 bd 79 0a f9 3d 12 c7 36 3e
       -0.20649345 -0.11819617 0.121602006 0.17849377
0002b0 4f 3d 17 bf 28 e6 c2 bd d0 bd 2f 3e 95 a6 90 be
       -0.59077924 -0.09516555 0.17162251 -0.28252092
0002c0 0b 7b 0a 3e c8 0a 65 be 3a 65 8b be e3 40 07 be
       0.135235 -0.22367394 -0.27225667 -0.13208346
0002d0 c9 c1 57 3e 55 8d 89 3e f3 4a d0 be 46 24 fe bc
       0.21070017 0.2686564 -0.40682182 -0.031023156
0002e0 af bb bd 3e d1 cd 87 be f9 af 81 3e 91 35 be 3d
       0.37057254 -0.26524213 0.2532957 0.09287561
0002f0 9d 57 6e 3e 67 ec 95 be cc cc 46 3e 2e 07 57 be
       0.2327561 -0.29281923 0.19414061 -0.20998833
000300 bd 81 82 be b0 0d 2c bc e0 71 0c bd 11 26 6c 3c
       -0.25489607 -0.01050131 -0.034288287 0.014413373
000310 45 1f 62 bd 81 93 ac 3b 78 c6 15 3f 79 a3 77 bd
       -0.055205602 0.0052666073 0.58505964 -0.060458634
000320 cb c8 f9 bd d1 d5 2f 3d d3 f8 65 be 27 93 b7 3e
       -0.12196501 0.04292852 -0.224582 0.35854456
000330 67 0e c3 bc 74 2b b5 bd 3b e0 06 3e eb 40 b1 bd
       -0.023810579 -0.08846179 0.13171475 -0.0865496
000340 3c a5 83 be 14 82 6b 3e 35 93 b2 3d ec 8f ee 3c
       -0.25712 0.2299884 0.08719484 0.029121362
000350 7b 51 41 3e 33 79 57 bd 21 9b 31 3d e6 c3 fd be
       0.18878739 -0.05260582 0.043360833 -0.4956352
000360 94 f4 49 bc 22 d2 89 bc f1 ad 8b bd a0 a5 2b bf
       -0.012326378 -0.016823832 -0.06820286 -0.670496
000370 d9 6b 8d bd bb 14 be bc 2d ed 5e bd 32 63 c4 bb
       -0.06905336 -0.023203244 -0.054425407 -0.0059932703
000380 8c 76 f6 bd 30 0a 7f 3c 88 b8 bd bd 52 05 2e be
       -0.1203433 0.015566394 -0.09263712 -0.16994217
000390 08 86 d9 3e 88 8e c1 3d cc 52 b1 3e 59 46 c1 bd
       0.4248507 0.09451014 0.34633482 -0.09437246
0003a0 65 cd b1 3d 1d 49 49 be 72 01 9e bd 2f 7b 2a 3d
       0.08681754 -0.19656797 -0.077151194 0.041621383
0003b0 70 b3 17 3e 87 e4 30 bd 8a b0 92 3d 77 ad 10 bf
       0.14814544 -0.04318669 0.071625784 -0.56514686
0003c0 94 30 ae be ba 6d dd bd 5f 37 ab 3d 34 6f aa 3d
       -0.34021437 -0.10811944 0.083601706 0.083219916
0003d0 59 4a 03 3b 0e 0d d3 bc 9c 10 e1 bc 27 95 01 3e
       0.0020033328 -0.02576306 -0.02747374 0.12654553
0003e0 85 48 d7 bc d9 c7 be bd eb 04 10 3d 07 0c 5d 3d
       -0.026279697 -0.09315462 0.03516094 0.05396655
0003f0 5b 4a fd bd 43 b0 12 bf 65 cd 76 be 79 47 9a 3d
       -0.12367698 -0.57300204 -0.2410179 0.075331636

q_c_x.blocks.0.shortcut.bias f4 [64]
000000 49 1a 83 3e bf ac 9d 3e 63 82 0b be 4a 3b bd 3c
       0.2560599 0.30795857 -0.13623957 0.02309956
000010 e5 cf 87 bf 53 8f 00 bf 8c 7a 50 3f 72 8c a4 3e
       -1.0610319 -0.50218695 0.8143699 0.321384
000020 3c a5 1f bf a9 d1 71 3c c9 b6 6b bb d2 e7 47 be
       -0.623615 0.0147594595 -0.0035967103 -0.19522026
000030 89 a8 58 3e bc d2 51 3e 22 63 ba be ce 13 bb be
       0.21158041 0.20490545 -0.36403757 -0.36538547
000040 4c 54 4a 3e 96 61 90 3e 6b 40 a1 3e 76 f8 0c bf
       0.19758719 0.28199452 0.3149446 -0.5506662
000050 da a5 1f bf 5b ed 06 bd 31 de 81 3d c3 91 0b bf
       -0.62362444 -0.032941204 0.06341208 -0.5451929
000060 9f 65 ca be 8c 90 9a bd ad ab 1f 3f c1 dc bc be
       -0.39530656 -0.075471014 0.6237133 -0.36887172
000070 cf 88 e3 bd 57 0d 6e be 05 47 02 3f 3e e9 e7 3e
       -0.111100785 -0.23247276 0.5088962 0.45295137
000080 11 44 34 3e 56 22 79 3e 8a 8a 53 3f 1a 52 3c be
       0.1760409 0.24329504 0.8263327 -0.18390694
000090 08 cd 21 bf 15 75 31 bf 35 0d 35 3e d8 07 cd bd
       -0.6320348 -0.6931928 0.1768082 -0.10011262
0000a0 35 dd c7 3e d9 5d 6d be de d7 b6 3e b8 a8 16 be
       0.39035955 -0.23180331 0.3571157 -0.14712799
0000b0 dd a0 05 3f 0e 28 c3 be 01 34 59 bc d0 a6 87 be
       0.5219858 -0.38116497 -0.013257028 -0.26494455
0000c0 6b 04 13 3f 31 ab cb 3e de 92 f3 3e cb 59 12 be
       0.57428616 0.39779046 0.47572988 -0.14292066
0000d0 6b dc 85 3e 18 94 5e be 58 6d 56 bf 83 c9 49 3e
       0.26144728 -0.21736181 -0.83760595 0.19705777
0000e0 12 4b e7 3d c6 fc 34 3e ee a1 64 3d c2 fc 09 bf
       0.112936154 0.1767455 0.05581849 -0.539013
0000f0 18 93 39 bf 4c e7 5a 3e 90 3d 50 3e a8 95 b7 3e
       -0.7249007 0.21377295 0.20335984 0.35856366

q_c_x.blocks.1.net.0.weight f4 [64, 64]
000000 c0 c9 5b 3e c3 47 92 bd e6 7b 8a 3e d9 bd a2 3e
       0.2146368 -0.07142594 0.27047652 0.31785467
000010 2c 8f e9 bd 83 b4 4c be ef 23 ae bc c5 9d ed bd
       -0.11404261 -0.19990735 -0.021257369 -0.11602358
000020 59 a9 28 bd e5 8a 50 3e 7c 1a b9 bc a4 07 d8 be
       -0.041177128 0.20365484 -0.022595637 -0.4219333
000030 32 a7 9b be 29 bd 16 3d 65 aa 91 be b4 bc 6b 3c
       -0.30400997 0.03680149 -0.28450313 0.014388252
000040 ec df 34 3e 92 ef 19 3e b5 41 ac bd 9d 6a 1c bf
       0.17663544 0.15032795 -0.0841097 -0.6110018
000050 73 53 1a bf f3 48 36 be d0 13 44 bd 51 d9 3d bf
       -0.60283583 -0.17801265 -0.047870457 -0.74159724
000060 40 4e 0f 3e 69 8f 2a be ec dd 2b be 02 c3 13 3e
       0.13994694 -0.16656269 -0.16783875 0.14429858
000070 9e cd b6 3c 9b 3f 13 3e 96 56 35 bd 70 8e a6 bd
       0.022314843 0.14379732 -0.044272028 -0.081326365
000080 b9 c8 2f 3d 86 e8 03 3e 92 db 0f be 44 9c 73 3d
       0.042916033 0.1288167 -0.14048603 0.0594752
000090 e2 31 1a 3e c5 42 5b 3e 86 c8 89 3d 60 24 1d 3e
       0.15058091 0.2141219 0.067277 0.15345907
0000a0 28 a6 16 3c 08 70 9d 3d 05 29 51 3d 04 a5 05 bf
       0.009194888 0.07687384 0.05106451 -0.5220492
0000b0 79 71 cc be d4 e1 ef bd ed e5 3c 3e f0 d7 45 3e
       -0.39930323 -0.11712995 0.18447085 0.19320655
0000c0 be 43 3f be 67 37 dc be 17 53 4e bd 95 4b c4 bd
       -0.18678185 -0.4301102 -0.05037221 -0.09584729
0000d0 ce 9e 1b be dc 33 58 bd 81 8a 7e be 41 66 4d be
       -0.15197298 -0.052783832 -0.24857523 -0.20058538
0000e0 42 65 76 3d de 08 2d 3c ff b2 52 bd 2d 8d 89 3d
       0.06015516 0.010561196 -0.051440235 0.0671638
0000f0 1e 48 21 be 62 13 a4 bd b2 8d fb be 30 0e c1 bc
       -0.15750167 -0.080115095 -0.49131542 -0.023566335
000100 c5 29 d9 bc 7a ea ac 3d a6 9d aa be fc ef 1a 3e
       -0.026509175 0.0844316 -0.333234 0.1513061
000110 0d 3d 2e be a7 44 8f be 09 07 97 bd 2e ac 12 be
       -0.17015477 -0.27982065 -0.07374389 -0.14323494
000120 bb 72 44 be 8e ab de 3c c3 cc 42 3e e8 e2 03 bf
       -0.19184391 0.027181413 0.19023423 -0.51518106
000130 16 80 3e 3d 4d 3c 97 bd 22 c8 00 3e fb 92 81 bd
       0.04650887 -0.07384548 0.12576345 -0.063268624
000140 8c 0a 5a 3e f1 a6 f1 be 40 42 4e bd 3b 08 0d bf
       0.21293086 -0.4719768 -0.05035615 -0.55090684
000150 78 55 f3 bd b2 ad 04 3e ff e8 ca be 0e 7c 3c be
       -0.11881536 0.12956885 -0.39630887 -0.18406698
000160 42 ba cb bd 66 a9 1f 3e e3 1a ac 3d e3 b8 91 3d
       -0.09947635 0.15591964 0.08403566 0.071153425
000170 ba b8 ce be a8 aa 72 3e b1 f6 09 bd 81 ac 56 3d
       -0.4037531 0.23697913 -0.03368253 0.052410606
000180 77 19 8d be bc 1a c8 3d bf d4 89 3d 99 6b d6 be
       -0.2755849 0.09770724 0.06730031 -0.41878965
000190 cf eb dc 3d cf 66 d9 3c c3 49 c2 bd 0e 4c 6a bd
       0.107871644 0.02653828 -0.09486725 -0.057201438
0001a0 0e 4f d7 3d 7a 84 a6 be 1d 21 7a be 44 8d f1 bc
       0.10513125 -0.32522947 -0.24426694 -0.029486306
0001b0 75 b7 3b be e0 5e 36 be 15 cc 1d be 1b 61 a5 3e
       -0.18331702 -0.1780963 -0.15409882 0.32300648
0001c0 85 f0 2f be 60 d0 0a be 2c a4 4c 3e f0 4a 5d be
       -0.17181595 -0.13556051 0.19984502 -0.21610618
0001d0 d7 62 07 3d a1 fd a0 3d 08 43 cf bd b5 1d a7 be
       0.033053245 0.07860876 -0.10120207 -0.32639852
0001e0 0a db c1 be 04 9e b5 bc 2b 13 7d 3e b4 d4 fc be
       -0.37862426 -0.022170074 0.24714343 -0.4938103
0001f0 28 e6 1c 3e de 8a 08 bd 0b e7 d7 be 7d c4 ba be
       0.15322173 -0.03333556 -0.4216846 -0.36478034
000200 6d f4 b9 bd 28 e4 95 3d 9b 9d 08 3d e0 94 a4 3d
       -0.09079824 0.07318908 0.03335343 0.08036208
000210 05 58 4c bf a6 d7 33 bf 5d 7e c7 3d c0 91 e8 3d
       -0.7982181 -0.7025093 0.09740899 0.113559246
000220 fe bf c7 3d 3f 43 80 3c 8d cf c5 39 61 f6 ea bd
       0.097534165 0.015657065 0.00037729405 -0.11472774
000230 5b 75 2b 3e 68 a2 06 3e 1d cd 8b be fc 1a 92 bd
       0.16743986 0.1314789 -0.27304927 -0.07134053
000240 f6 8d 72 3d 6a 39 6a 3e 39 57 ad 3b b4 90 1a be
       0.059217416 0.22873464 0.0052899388 -0.15094262
000250 f8 27 1e bf ab 03 d6 3d a5 d3 10 3e 93 e1 83 be
       -0.6177974 0.10449918 0.14143236 -0.25758037
000260 16 42 27 be e8 01 1a be 56 3a 8b bd 48 f4 43 3e
       -0.16333804 -0.1503979 -0.06798236 0.19136155
000270 f3 ae b3 3e 17 81 14 3e c4 20 e1 3d 16 39 c5 be
       0.35094413 0.14502369 0.10992578 -0.38520116
000280 92 a9 82 bd e6 a2 d6 3d 0e b2 04 bf 6e 95 90 3e
       -0.06379999 0.10480289 -0.5183419 0.28239006
000290 b2 cf ca 3c f8 67 bc 3d 01 f4 24 3e f2 e1 3b 3e
       0.02475724 0.09199518 0.16108705 0.1834791
0002a0 3a 11 f5 bc 10 b0 bc bd 06 0d 8e 3d f2 b7 a7 be
       -0.02991544 -0.09213269 0.06936078 -0.32757527
0002b0 5d 13 8f bc 0c a6 74 be 9b 81 62 3e 0a fb 42 3d
       -0.017465288 -0.23891467 0.22119753 0.04760269
0002c0 fe ec f2 3d 34 dd ad bd 35 b5 c3 bc f9 89 af 3c
       0.11861609 -0.08489457 -0.023890117 0.021428095
0002d0 63 43 85 be 5c 77 12 be 45 28 c3 bd 61 61 cd 3d
       -0.26027974 -0.14303344 -0.09529165 0.10028339
0002e0 57 83 ce bd 00 a5 a9 be 3e 80 af 3d 1e 47 cc 3b
       -0.10083645 -0.33133698 0.08569382 0.0062340638
0002f0 eb fb b1 bd fd 3e 19 3e 00 68 a1 bd d9 0e 56 3e
       -0.08690628 0.14965434 -0.078811646 0.20904101
000300 58 df 97 3d 57 77 0d bd 0a 8c 5c be 03 8b cf 3d
       0.07415646 -0.03453764 -0.21537796 0.10133936
000310 3e 21 4c 3c 77 89 b8 bc 5e 18 ae bd 82 58 d2 bc
       0.012459097 -0.022526486 -0.085007414 -0.02567697
000320 bc cc 57 3c 66 0c de be a5 16 78 be 40 da 46 be
       0.013171371 -0.43368834 -0.24227388 -0.19419193
000330 f1 eb ed 3c bf 71 a9 be b2 30 0f be 1f aa 86 3d
       0.02904317 -0.33094594 -0.1398342 0.06575417
000340 b3 98 02 bf 32 b4 86 be a8 f9 43 3e fc 3a cf 3d
       -0.5101425 -0.26309353 0.19138205 0.10118672
000350 0e 2c d5 be c0 a8 74 3e 53 e0 db bd 40 14 93 3d
       -0.41635174 0.23892498 -0.10736146 0.07181597
000360 fe 17 2b 3e 7c 09 8a bd 75 94 68 3d 76 cd 5d be
       0.16708371 -0.0674009 0.056782205 -0.21660408
000370 bb 9f a3 bd 7f f0 b9 3d e3 fe 85 3d be 50 55 3d
       -0.079894505 0.09079074 0.065427564 0.052078955
000380 da f3 62 3d 9d e9 87 bd 95 ea 2a 3e ff 13 66 3d
       0.055408336 -0.06636355 0.16691048 0.056171414
000390 2d 25 62 be f3 16 2d bf 8d 02 32 b9 42 07 c5 be
       -0.22084494 -0.6761314 -0.00016976353 -0.384821
0003a0 97 e2 0a 3d 73 e7 43 3e c4 11 1b bd 84 a1 29 3d
       0.0339075 0.1913126 -0.03785874 0.0414138
0003b0 69 71 5b bc b3 d5 0c bf 5f d9 86 be 7c 32 f0 3c
       -0.013393738 -0.5501358 -0.26337716 0.029320948
0003c0 a0 3a b3 bb 56 9f 1c be e7 e5 ef 3d 7b 93 17 bf
       -0.005469635 -0.15295157 0.11713772 -0.5920941
0003d0 e2 6d 70 bd 67 04 1c bf 4a 37 ca bd c2 db 30 bf
       -0.058698542 -0.6094422 -0.09873827 -0.69085324
0003e0 17 f7 58 bc ca 1f c8 3d 01 53 b9 3e 73 4a 35 be
       -0.013242505 0.09771688 0.3619614 -0.17704181
0003f0 ba e9 87 be 57 ad 38 bd ef a3 0a be d1 cc dc 3d
       -0.26545507 -0.045087185 -0.13539098 0.10781253

q_c_x.blocks.1.net.0.bias f4 [64]
000000 f2 3d aa 3d 12 aa 96 3e 30 d6 96 3d 44 b5 58 3e
       0.083125964 0.29426628 0.07365072 0.21162897
000010 bd cd b3 be d7 54 59 3d 17 50 0e 3d 76 9e 90 be
       -0.35117903 0.053059425 0.03474435 -0.28245896
000020 19 3d 56 bd 66 bf 5f 3c cd d8 2d be f8 1f 71 ba
       -0.05230436 0.013656473 -0.16977234 -0.0009198184
000030 36 2a f9 be 5f 32 fb 3d 35 c9 11 3e 31 ec c2 be
       -0.48665017 0.12265467 0.1423691 -0.38070825
000040 d4 fc 94 3e 05 38 29 be 04 85 90 3e 8c 7a 11 3e
       0.29099143 -0.16525276 0.28226483 0.14206904
000050 9b 99 83 3e 80 c1 47 3e 6f 7e 68 3e f7 46 2f bd
       0.2570313 0.19507408 0.2270448 -0.042792287
000060 6c ea 4e be 78 68 9a be 06 1c 3b 3d 78 7a 86 be
       -0.20206612 -0.30157828 0.045681022 -0.2626531
000070 6b 8e 9f 3e e9 0f 8e 3d bf 8c 27 b9 4e df fb 3c
       0.31163344 0.06936628 -0.00015978793 0.030746128
000080 4f 8a 3e bf b0 9e 26 3d 19 c3 de bd 5d 35 ab bc
       -0.7442979 0.04067868 -0.10877056 -0.020899469
000090 81 d2 d3 3d 4c 28 8c 3e d2 78 78 3e 88 44 39 be
       0.10342885 0.27374494 0.2426484 -0.18092549
0000a0 25 27 c5 3d 60 2a 8f bf 72 aa 5d be af 8e 15 bf
       0.09626607 -1.1184807 -0.21647051 -0.5842084
0000b0 31 ab 0a be f3 c2 ad be 04 cb b8 bd f8 5f 3b 3c
       -0.13541867 -0.33937797 -0.09023097 0.011436455
0000c0 7c 22 43 3e e6 4d 49 ba 0f 38 9b 3d 5d f0 ac 3e
       0.19056123 -0.0007679149 0.07579052 0.33777133
0000d0 06 49 98 3e bd 0c 36 be 7c 76 12 3e 07 14 18 bf
       0.29743212 -0.17778297 0.1430301 -0.5940556
0000e0 c4 e8 17 3b 51 19 bd 3e 8e d1 69 bf 20 d7 a2 be
       0.002317951 0.36933377 -0.9133538 -0.31804752
0000f0 47 cf 9b bb 65 79 d0 bc 26 17 07 be 7b 9b 80 be
       -0.004754934 -0.02544851 -0.13192424 -0.25118622

q_c_x.blocks.1.net.2.weight f4 [64, 64]
000000 e1 3b 87 bf b8 b2 39 3e f8 d3 88 bd 67 d6 9c 3d
       -1.0565149 0.18134582 -0.06681055 0.076580815
000010 99 e1 da 3c 35 44 9a 3d b1 93 15 3c 77 35 16 be
       0.026718901 0.07532541 0.009129451 -0.14668833
000020 7d f3 18 3d d3 fc 5b bd 04 67 cb 3c e1 59 8e 3d
       0.037341584 -0.05370791 0.024829395 0.06950737
000030 cc a6 1a bd 9d 1b 5e 3e 03 91 18 3e 05 fe c3 bd
       -0.037756726 0.21690221 0.14899068 -0.09569935
000040 81 4f f1 3d a8 73 8e 3e 67 9f 75 3c 84 aa 5e bc
       0.11782742 0.27822614 0.014991618 -0.013590459
000050 e2 83 ae 3e ee 09 88 bd f7 0d cf 3c 17 4c 45 3d
       0.34084994 -0.06642519 0.025275214 0.048168268
000060 d9 60 c5 3e 75 76 da bc 6f b4 6c 3e f4 8a 83 bd
       0.3855045 -0.026667813 0.23115705 -0.064229876
000070 b5 a6 7d 3d 58 d0 30 3e 66 8e 39 3c b7 10 eb 3d
       0.061926562 0.17266977 0.011325454 0.114777975
000080 9e 9e bb bd b6 ea 9b bd dd 64 2b bc e9 cf 33 3c
       -0.09161113 -0.07613127 -0.010461059 0.010974863
000090 fd a5 14 3e 4a 4f 37 be a7 c8 0a 3f 5f b8 14 3e
       0.14516445 -0.1790134 0.5421242 0.14523457
0000a0 72 eb 07 be f2 16 b3 be 09 76 83 3e 2f 92 14 bd
       -0.13273409 -0.34978443 0.2567599 -0.036272224
0000b0 02 7c e5 3e 75 86 55 bb 70 31 c2 bc ed 52 3f be
       0.44821173 -0.0032581363 -0.023705214 -0.18683977
0000c0 2d 6e ea bd 26 3c 1f be 5e 11 2a 3f 14 16 14 bd
       -0.114467956 -0.15550289 0.6643275 -0.036153868
0000d0 68 31 72 3e e1 4a b2 3b 42 e2 9b 3c 09 0d 92 3e
       0.2365166 0.005441055 0.019028787 0.2852557
0000e0 06 01 7e bd 51 13 2d bc 06 1f 27 3d 4e 4c 75 be
       -0.062012695 -0.010563687 0.04080107 -0.23954889
0000f0 df e5 a9 3e ac 4a a0 3c 25 0b 07 be 99 55 8f 3d
       0.3318319 0.019566856 -0.13187845 0.06998748
000100 b2 e7 32 bd 89 02 af 3e 56 26 e3 bc ea c1 3b 3d
       -0.043677993 0.34181622 -0.027728241 0.045839228
000110 f4 6e 31 3e 1f 3f 04 3e 50 b4 11 3d 8e 77 fd bc
       0.17327482 0.12914704 0.03557235 -0.030940797
000120 e6 72 fc 3c c6 b5 9c bd 24 79 32 bb 5d c9 c5 3d
       0.030816507 -0.07651858 -0.002723285 0.096575476
000130 74 1a d5 be 27 ff da 3c 6e 9a cc bc 99 3b a1 be
       -0.41621745 0.026732994 -0.024975982 -0.31490782
000140 d6 6c e8 3d 4b 66 4b bd 05 0a b2 3d 64 8e 40 3d
       0.11348884 -0.0496581 0.08693317 0.047010794
000150 f4 97 41 bf c3 1c 93 bd e4 fe ca 3d d6 51 0c bd
       -0.7562249 -0.0718322 0.09911898 -0.034257732
000160 d9 04 27 be 0e 5a b8 3e 78 ac a2 3d 25 d4 cf bd
       -0.16310443 0.36006206 0.07943052 -0.10147885
000170 e0 2e e4 be 24 74 b7 3e 1c d4 6f bf 9e dc 17 ba
       -0.44567013 0.35830796 -0.9368303 -0.00057930674
000180 e7 2f 01 be 66 c4 62 be 67 a8 a8 3c ac 76 fd 3c
       -0.1261593 -0.22145233 0.020588113 0.030940376
000190 bf 04 3d 3e af d1 83 3e 97 59 55 3d bd c4 b9 be
       0.18458842 0.25745913 0.052087393 -0.36282912
0001a0 ec 43 b0 3d 13 5b 5b bd ff 4e b5 3e b2 4d 44 bd
       0.08606705 -0.053553652 0.35411832 -0.04792566
0001b0 4a 48 d4 3c bc 29 e2 bd ed d1 52 3e 57 73 c9 be
       0.025913376 -0.110431165 0.20587893 -0.3934581
0001c0 b4 d7 4c 3c e9 35 ba be 9d 04 3d 3e 40 f0 6f bd
       0.0125025995 -0.36369255 0.18458791 -0.05857873
0001d0 28 4a 99 3d 70 95 97 bd 55 53 90 bc 51 a5 03 bf
       0.07484847 -0.0740155 -0.01761786 -0.5142413
0001e0 ee 94 4c be ee 90 f3 3c 6b 62 ab be 51 f7 55 be
       -0.19978687 0.029732194 -0.33473524 -0.20895125
0001f0 be 77 8d 3e 21 d2 d9 bc 76 12 09 3c a3 96 e6 3c
       0.2763042 -0.026589455 0.008366218 0.028148001
000200 9e 25 df 3d 18 a4 d0 3e 7e 8d 7e 3d b3 b3 fb 3d
       0.10895847 0.40750194 0.062146656 0.12290134
000210 80 3d a8 be 59 39 3e 3e f5 9f 25 bf 3f a0 0c bf
       -0.3285942 0.18576564 -0.646972 -0.54932016
000220 02 12 b9 3d 1f be fc bd d1 15 06 be 0d c8 23 bd
       0.09036638 -0.1234095 -0.1309426 -0.039985705
000230 c0 bc 28 3b 11 c0 c6 bc 50 cd c9 3c da a9 44 be
       0.002574727 -0.024261506 0.024634033 -0.19205418
000240 02 2c 2a 3e a2 9c a5 bd 25 a1 93 3d 29 61 90 3d
       0.1661835 -0.08086516 0.0720847 0.07049782
000250 7e c2 66 3e 67 82 9d be f8 8f b9 3d 12 64 c7 3d
       0.2253513 -0.30763552 0.09060663 0.09735884
000260 82 ef 29 be 95 27 ad 3d f3 f8 ee 3e 78 2b a6 bc
       -0.16595271 0.08454815 0.46674308 -0.0202844
000270 54 94 f5 3d 6c 41 90 3e ec 1e cb be 98 4d 3e be
       0.11991182 0.28174913 -0.3967203 -0.18584287
000280 38 23 cc bd 0a da 96 be 31 fb 4b bd 3a 44 ae 3c
       -0.09967655 -0.29463226 -0.0498001 0.021272767
000290 bc e8 a4 3e e7 b1 67 3c c2 7c bc 3e 4f 32 2f 3d
       0.32208812 0.014141536 0.36813933 0.042772587
0002a0 38 3f 3f 3d 9c f8 32 be dc be 0c be 70 15 93 bd
       0.04669115 -0.1747765 -0.13744682 -0.07181823
0002b0 5d 48 b5 3d 40 e9 8a be 8c 56 8d be a6 bd 27 be
       0.08851693 -0.2713108 -0.27605093 -0.16380939
0002c0 ff 8e 36 3e 3f 86 e3 be ee ed 29 3f ea 5a 00 3d
       0.17827986 -0.4443836 0.66378677 0.031336702
0002d0 66 28 7c 3e c8 4a 21 3e 27 50 fc bd 4a c5 c1 3d
       0.24624786 0.15751183 -0.12319975 0.09461458
0002e0 aa 8e ee be ce 82 4d be 08 85 46 39 25 7b 41 be
       -0.4659322 -0.2006943 0.0001893231 -0.18894632
0002f0 57 fe 0d bd 8a 01 83 3c 83 85 4e 3e 09 28 45 3e
       -0.034666386 0.015991945 0.20168118 0.19253553
000300 d1 27 8a bd 0a e7 27 3e 12 7c 50 3e 4b 8c 82 be
       -0.067458756 0.16396728 0.20359829 -0.2549766
000310 3e f3 b0 3d a2 e0 29 be e2 f0 53 be 7a 5a 6b be
       0.08640145 -0.16589597 -0.20697358 -0.22983733
000320 d0 8f 3e 3e 63 29 3a 3e 73 9c 42 3e 46 38 b6 3c
       0.18609548 0.1817985 0.19004993 0.02224363
000330 e0 b6 0c bd 9e e6 11 be 04 0d e1 bd 10 24 00 3e
       -0.03435409 -0.1424813 -0.10988811 0.12513757
000340 8d 4f d9 3d b3 37 38 be cf f1 29 bd 6d 08 93 3d
       0.10610876 -0.17989998 -0.041490372 0.071793415
000350 23 30 42 3e 13 c9 ae be b1 3f 6d bd 38 c6 b1 3c
       0.18963675 -0.34137782 -0.05792207 0.021700963
000360 9a 9c 78 3e bf 94 e9 bd df 79 42 be 61 5e 71 3d
       0.24278489 -0.11405324 -0.18991803 0.058927897
000370 ea 03 ab 3e 63 6b 48 3e 1c 31 0f bf 72 1f ae be
       0.33401424 0.19572215 -0.5593431 -0.34008366
000380 8f 58 86 3d 33 0a 32 bd b3 fa dd bc d0 f4 0d bd
       0.0655986 -0.043466758 -0.027097082 -0.0346573
000390 3b bf 16 3d 0e 06 0b bb a4 90 29 bd 50 65 63 be
       0.036803465 -0.0021213326 -0.041397706 -0.22206616
0003a0 97 69 95 3e 4b 9a be be c7 5a 38 be 60 e1 bd 3e
       0.2918212 -0.3722709 -0.18003379 0.3708601
0003b0 13 69 88 bb 57 6a 34 3d fd c5 57 be fb 02 3c be
       -0.0041629164 0.044046726 -0.2107162 -0.18360512
0003c0 bd 2e a5 3e 3d bb 89 be 4a 02 16 be cb f4 cb bd
       0.3226222 -0.26900664 -0.1464931 -0.099588
0003d0 97 93 8c bc 28 7a df bb eb 9e 38 3d 4e 8d 01 bd
       -0.01716022 -0.006819982 0.04507343 -0.0316289
0003e0 dc 05 75 be ae 4c 8c be f0 43 67 bf 17 0b bc be
       -0.23928016 -0.27402252 -0.9033804 -0.3672721
0003f0 56 37 85 3e fc 9b 32 bd e4 51 25 3e 95 8b e9 be
       0.2601878 -0.04360579 0.1614452 -0.45614305

q_c_x.blocks.1.net.2.bias f4 [64]
000000 23 7e 3e 3d 6d 6d 32 3d 66 b9 40 3e 80 3e 8a 3c
       0.046507012 0.043561388 0.18820724 0.016875505
000010 bf e7 26 be b0 84 7e 3d e8 dc 1c 3e 1e 86 1f bc
       -0.16299342 0.06213826 0.15318644 -0.009736566
000020 0c 24 8a bd 90 e5 a1 3d cc c2 52 bc db f1 9c 3d
       -0.06745157 0.07905114 -0.012863826 0.07663318
000030 a8 1a 94 3d aa 0c a4 3d 11 b6 17 bd 41 46 0d 3d
       0.07231647 0.08010228 -0.037038866 0.034490827
000040 d7 c3 2c bd 6c 6a 72 3d 28 69 96 3e 28 c7 45 3e
       -0.042178955 0.059183523 0.29377103 0.19314253
000050 ad 76 9a bd 7f 29 28 3c 20 9c 61 3e e4 4a 6b 3d
       -0.07542167 0.0102638 0.22032213 0.05744447
000060 fd 65 55 3e 30 f4 09 3e 8e 61 85 3e 8a 79 96 3c
       0.20839687 0.13472056 0.2605099 0.018368501
000070 33 4d b1 3e 59 a7 93 be 13 d2 57 3e 6c b6 d2 3b
       0.3462921 -0.28838614 0.2107623 0.006430438
000080 db 37 79 3d a4 1c b0 3e 86 3d a7 bc 28 97 02 3d
       0.060844284 0.3439685 -0.020415079 0.031882435
000090 81 24 38 bd 56 5b 38 bd 01 d8 a7 3d f5 f6 1e be
       -0.044956688 -0.04500898 0.08195496 -0.15523894
0000a0 69 a6 ed 3c 00 bb 1d 3d c7 cc 4a 3d 2c be 95 3d
       0.029010015 0.038508415 0.049511697 0.07311663
0000b0 2c e0 2b 3e c2 e4 6a 3e d7 6f b6 3d dc 06 72 3d
       0.16784734 0.22938827 0.089080505 0.059088573
0000c0 44 c3 35 3e 8e 88 0a 3e 2b eb 31 3d 77 bb 55 3e
       0.17750269 0.13528654 0.043437164 0.20872293
0000d0 c0 81 a0 3d e1 de bf 3c 37 0f 2a bc 21 ea 40 3e
       0.07837248 0.023421707 -0.010379604 0.18839313
0000e0 50 68 32 3d 93 58 55 3d 85 d2 a9 3d b6 26 5c 3d
       0.04355651 0.052086424 0.082921065 0.053747855
0000f0 ef 9f 03 be d3 d7 e5 3c db 1c dd 3d 50 59 66 bd
       -0.12853979 0.028057015 0.10796519 -0.05623752
