MARVIN/models/MARVIN_CHU_all_final.pt (torch, 794796 bytes, 53 tensors)

p_c f4 [12]
000000 28 a8 2a c0 49 b1 95 bf 9b 09 f3 3f 0d 88 93 bf
       -2.6665134 -1.1694728 1.8987306 -1.1525894
000010 49 00 3f 3d 90 f4 61 c0 6b 4a 2e c0 97 b7 2c c0
       0.04663113 -3.530552 -2.723292 -2.6987054
000020 28 03 21 bf 9c 74 59 c0 27 ae cd 3f bb af 74 c0
       -0.6289544 -3.3977423 1.6068772 -3.8232257

q_c_x.blocks.0.net.0.weight f4 [64, 8]
000000 5e 57 3e 3e 99 6d 86 3d d1 ab d2 3c 6f af fd bb
       0.18588015 0.06563873 0.025716694 -0.0077418606
000010 31 5c b9 3b 59 84 c0 3c 6b 3a 42 bd 11 9f 67 3e
       0.005656742 0.023500608 -0.047418993 0.22619273
000020 7b b2 70 bd ab c9 68 bc 65 7a be bd 57 52 3a 3e
       -0.058763962 -0.014208238 -0.09300689 0.18195473
000030 56 82 09 3e 58 6e f1 3d 51 06 3e be 73 e9 41 be
       0.13428625 0.117886245 -0.18557097 -0.1893671
000040 2a cb 06 ba 44 e0 55 bb 8d a6 89 bd 78 55 c0 be
       -0.0005141968 -0.0032634893 -0.0672122 -0.37565207
000050 10 1d 59 3c 82 0e 1a bd a5 cb 17 bd ba a9 d9 bc
       0.013251558 -0.037611492 -0.037059445 -0.02657019
000060 f9 e3 6c bd 70 4a c7 bb b4 7d b1 3b 99 60 bb 3e
       -0.0578346 -0.0060818717 0.0054165963 0.36597136
000070 00 7f 02 3d c3 18 9c bd c2 55 54 be 40 dd 7c bd
       0.031859398 -0.076219104 -0.20735839 -0.061734438
000080 a2 3c 28 be 9f 63 1c be 13 35 d1 bc 36 f1 53 3e
       -0.1642938 -0.15272377 -0.025538003 0.20697483
000090 a2 a4 25 3e 24 e0 9b bd b8 78 33 bd fd c7 e7 bd
       0.16176084 -0.07611111 -0.0438163 -0.113174416
0000a0 df 11 19 be 4c 52 9f 3e a2 6a 25 ba a8 e0 2a bc
       -0.14948224 0.31117475 -0.000631014 -0.010429539
0000b0 ee 7e 1f bd ef dd 69 bc 4e d5 93 bd 70 47 4f 3c
       -0.03893941 -0.0142741045 -0.07218419 0.012651309
0000c0 97 b4 23 be 35 8b 32 bd d0 b9 8a 3e d2 d3 51 3d
       -0.15986858 -0.04358979 0.2709489 0.0512274
0000d0 32 86 b8 bd 1b 64 84 bd 6a 06 a1 3d 6a 20 fa 3b
       -0.09009971 -0.06464406 0.078625515 0.0076332586
0000e0 60 c6 68 be 48 d3 62 3d c7 ba 6a 3d bf e4 1a bd
       -0.22731924 0.055377275 0.05730703 -0.037815806
0000f0 3a de 92 3e 8b 12 18 3c 5a b3 89 3d d7 da 85 be
       0.2868517 0.009281765 0.06723662 -0.26143524
000100 e8 a0 08 be 39 5b c2 3c 16 ea 80 bc d8 3a 13 3c
       -0.13342631 0.023725139 -0.01573662 0.008986197
000110 00 87 54 3d 04 8a be ba 49 87 95 be 33 82 8c bd
       0.05188656 -0.0014536981 -0.29204777 -0.06860771
000120 25 b4 00 3d 87 60 b2 be af ca 17 3e 23 a5 8f 3c
       0.0314218 -0.3483927 0.14823411 0.017534798
000130 11 f6 da 3d 9b 35 e8 bd 4a de 10 bb 80 b4 fb 3d
       0.10691465 -0.113383494 -0.002210515 0.12290287
000140 60 8b 6c bc ac 58 ce bc ca c8 9b bc fa e5 09 bd
       -0.014437526 -0.025188766 -0.019016642 -0.03366659
000150 7a 23 51 3d b0 3c 91 3a 97 d6 e2 3b 44 12 89 bc
       0.051059224 0.0011080708 0.0069225538 -0.016732343
000160 68 e3 e1 bd b6 23 a1 bc 58 5c a8 3c 87 8d 25 3c
       -0.110297024 -0.019670349 0.020551845 0.0101045435
000170 cb a3 22 3d ec 65 77 bd 03 0a 1c 3c 9b b1 99 3e
       0.039706986 -0.060399935 0.009523871 0.30018315
000180 3d eb 90 3e a0 f3 c8 3b a0 1f 4e bd d4 07 8e 3c
       0.28304473 0.006132558 -0.05032313 0.017337717
000190 bc 62 00 be a5 d2 17 be 15 9c b9 bd b7 f4 5c be
       -0.12537664 -0.14826448 -0.090629734 -0.21577726
0001a0 6f 3c 20 bc bb dc d7 bd 3d 30 8d bd 78 53 5d bc
       -0.0097800335 -0.10540148 -0.06893966 -0.01350867
0001b0 0d 6d de 3e f1 e8 22 be fe 01 39 bd 12 3a 38 3e
       0.43442574 -0.15909173 -0.045167916 0.17990902
0001c0 17 44 34 be c7 85 8f be 5f d3 35 bd 28 8b 87 3c
       -0.17604099 -0.28031752 -0.044391032 0.016545847
0001d0 84 e0 15 be b7 e6 5b bd a0 87 2a bd 94 52 e1 bd
       -0.14636427 -0.053686824 -0.04163325 -0.11002079
0001e0 38 d2 a9 3d 97 8e fd bd a6 50 1e bd 82 ca ae 3d
       0.08292049 -0.123807125 -0.03865113 0.08534719
0001f0 cd 0e 44 3e a3 bc 08 bd 45 ec e9 bd 18 10 a7 be
       0.19146271 -0.033383023 -0.11422018 -0.32629466
000200 0b ef 34 bd 76 34 24 be 03 ce cd bd 40 99 fd bc
       -0.04417328 -0.16035637 -0.10049059 -0.030956864
000210 29 6e 8f 3e a1 ef a9 3d 51 bc 03 3d 2c 3b fd bc
       0.28013733 0.08297659 0.032162014 -0.030912004
000220 e0 85 48 3e c9 38 3f bd 82 08 e8 bb 0b 88 f6 bc
       0.1958232 -0.046685014 -0.0070810923 -0.030094167
000230 6a 6b 55 bd f9 de 75 bd 73 01 49 3e 39 67 9a be
       -0.05210439 -0.060027096 0.19629459 -0.30156878
000240 a4 cb 6a be b0 be e5 3d c3 d7 b6 bc e7 e2 79 bc
       -0.22929245 0.112180114 -0.02231968 -0.015251852
000250 db c1 a5 3a da 46 65 3d 1b 3e 8a 3b 47 c8 56 be
       0.0012646274 0.055975772 0.0042188293 -0.20974837
000260 38 0d 27 bd 4a 55 1a 3e c2 3e 3e be b9 d6 cb 3c
       -0.04078409 0.15071598 -0.18578628 0.024882661
000270 87 5a 92 3e 8e 7c 0e bd f2 37 5c bd 32 da 7d be
       0.28584692 -0.034786753 -0.05376429 -0.24790266
000280 ee 51 9f bd 50 82 ab 3d ef 49 f3 bd 48 54 ba be
       -0.07779299 0.083744645 -0.11879336 -0.36392426
000290 df e6 f4 3d 0a 51 b7 bd a7 2b 4a bd e0 6c f6 39
       0.11958098 -0.08951004 -0.049358036 0.00047001895
0002a0 5a 7a e6 bc aa 31 2c 3c 1b 9e 02 ba 65 88 05 bb
       -0.028134514 0.010509888 -0.0004982666 -0.0020375487
0002b0 f2 75 86 3c 6c 34 39 bc 33 fe bc bc c3 34 68 39
       0.016413663 -0.011304002 -0.02307043 0.000221449
0002c0 35 e8 1f be c9 96 5f bc 8b 5a fe bc 18 a2 94 bd
       -0.15615924 -0.01364679 -0.031049034 -0.072574794
0002d0 20 30 0c bc 0b 1d 53 bd 1f 73 c5 3e ac 2d 21 bc
       -0.008556396 -0.05154137 0.38564393 -0.009837549
0002e0 73 5c 75 3c 06 20 af bb 72 8a bd bc dd ad c8 bc
       0.014975655 -0.0053443937 -0.023137305 -0.024496967
0002f0 df 25 6d bd 7b 1b b1 3e 96 f3 9f bd 87 6d 0a 3b
       -0.057897445 0.34591278 -0.07810132 0.0021122412
000300 63 45 d4 be 81 50 11 3d 53 c4 a8 3d c2 08 c2 3b
       -0.41459188 0.035477165 0.08240571 0.005921454
000310 11 09 13 3d ac b4 e4 3c 28 77 a0 3c bd a8 0e bc
       0.03589732 0.027918182 0.019588068 -0.0087072225
000320 1b 9c 01 bd c4 94 69 3d f3 d6 a1 be b5 22 c9 3c
       -0.031643014 0.05702664 -0.31609306 0.024552682
000330 c7 00 0d bd e5 bf 2c bd e6 12 6c bb 83 44 04 3d
       -0.03442457 -0.042175192 -0.0036022007 0.0322919
000340 1e b9 99 3d 49 31 91 bc 35 3d 80 3e 52 04 56 3d
       0.075060114 -0.017723696 0.25046697 0.052250214
000350 3d 83 e9 bd 55 c0 9a bd 9f 36 09 be 66 e1 15 be
       -0.11401985 -0.07556216 -0.13399743 -0.14636764
000360 62 74 91 3d 28 b1 97 be 8f 3c 93 bd 45 2f 81 bd
       0.071022764 -0.29627347 -0.07189285 -0.06307844
000370 53 b0 e5 3b 88 e0 92 3c 6d e2 2e be 6e 73 b3 bd
       0.007009545 0.01792933 -0.17078562 -0.08762251
000380 a9 5f c0 bd c7 24 41 bd 43 17 4f 3e 6a 3c d1 bd
       -0.09393246 -0.047154214 0.20223717 -0.10216601
000390 2a bf 9e 3e ea 4d 38 bd 06 e6 ad bb cc a4 14 3e
       0.31005222 -0.04499618 -0.005306962 0.1451599
0003a0 f0 39 2e 3d ca 11 b1 be 24 2e d6 bd 4f 37 6f bd
       0.042535722 -0.34583884 -0.104580194 -0.058402356
0003b0 69 fd 15 bd 7c bd 15 bd 5f cd 4a bb 5e ef 40 bd
       -0.036618624 -0.03655766 -0.0030945165 -0.04710328
0003c0 2b 12 10 3e 9c 7b 66 3d f8 69 aa bd 75 59 88 bd
       0.1406943 0.056270227 -0.08320993 -0.066576876
0003d0 cf 1c 0d be a9 2d 7c bd 84 5b 9c be 40 7d f5 3d
       -0.13780521 -0.061566982 -0.3053857 0.1198678
0003e0 47 78 63 3d f8 5e a9 3e a7 be 1b bd 8c 78 27 bc
       0.055534627 0.33080268 -0.038023617 -0.010221612
0003f0 14 81 b3 bd 20 ba c8 bd bc d5 b0 3d 9e e2 2c be
       -0.08764854 -0.098011255 0.086345166 -0.16883323

q_c_x.blocks.0.net.0.bias f4 [64]
000000 d4 2f 14 bf c0 bf f8 be ae c8 d2 be c5 6b c6 be
       -0.5788548 -0.48583794 -0.4116873 -0.38754097
000010 18 91 e8 be 37 af ad be 5d b5 c3 be 76 b7 56 be
       -0.45423198 -0.3392274 -0.38224307 -0.20968422
000020 81 96 fb bd b8 ce f0 be 25 79 90 be ea 99 13 bf
       -0.12284566 -0.47032714 -0.28217426 -0.5765673
000030 a8 74 ea be 37 c3 de bd 90 a4 c9 be bf 8a 14 bf
       -0.45792127 -0.10877078 -0.39383364 -0.5802421
000040 34 c9 e9 be 35 1e ba be be 8e cf be b3 4c bd be
       -0.45661318 -0.3635117 -0.4053859 -0.3697258
000050 51 a7 38 be 70 52 34 be 74 23 8d be 37 07 9f be
       -0.18032576 -0.17609572 -0.2756611 -0.31060192
000060 4a 44 f0 bd e2 bd a4 be 4a 51 0e bf 02 3d 06 bf
       -0.11731775 -0.3217612 -0.5559279 -0.5243684
000070 8a 68 16 bf 80 d1 f0 be 45 8f 67 be 97 69 3b be
       -0.58753264 -0.47034836 -0.22613247 -0.18301998
000080 17 b5 4c be 82 0f 09 bf 66 56 e8 be 7f 09 af be
       -0.19990955 -0.5353929 -0.45378417 -0.34186932
000090 8a 83 b2 be 52 f6 50 be de b1 2e bf 24 86 e4 bc
       -0.3486598 -0.20406464 -0.68240154 -0.027895994
0000a0 0b 2c dc 3d 33 8b 0a bf 60 1f e2 bd 22 a7 f5 be
       0.10750588 -0.5411865 -0.110411406 -0.47979075
0000b0 84 7f a9 be e3 51 b7 be 94 28 64 be cd 0b fc be
       -0.331051 -0.35804662 -0.22281104 -0.49227753
0000c0 d4 46 a0 be 9f 53 fe be d5 dd c5 be 10 a3 bf be
       -0.31304038 -0.49673173 -0.38645807 -0.37429094
0000d0 23 de 56 be 57 00 82 be 1c 6e a8 be c3 b6 50 be
       -0.20983176 -0.25390884 -0.32896507 -0.20382218
0000e0 20 ed 09 be 24 55 94 be 7b 8c 8a be 40 0c 8a be
       -0.13469362 -0.28971207 -0.27060303 -0.2696247
0000f0 5c b3 72 be 89 94 d6 be 1b 52 d1 be 9f 06 dc be
       -0.23701233 -0.41910198 -0.40882954 -0.42973801

q_c_x.blocks.0.net.2.weight f4 [64, 64]
000000 35 23 8d 3b 23 d3 02 be fb 94 85 3e 89 9e b6 3e
       0.0043071755 -0.12775855 0.26090226 0.35667828
000010 c6 69 ef bd 1b 4e 50 bf 05 95 08 bf 67 43 7a 3d
       -0.116900966 -0.8136918 -0.53352386 0.061099436
000020 16 ea 18 3d 24 f2 16 bd 0b 05 bc 3c f4 1f a9 be
       0.037332617 -0.036852017 0.022951623 -0.3303219
000030 a5 f6 d6 bd e2 fa a9 be 91 ad a7 3e a3 d8 4b 3e
       -0.104962625 -0.3319922 0.32749608 0.19906859
000040 51 f3 67 be 88 b5 1f be 8f fe 11 be 4e 96 bc 3c
       -0.22651412 -0.15596592 -0.14257263 0.02302089
000050 43 36 41 3e 27 6e 51 bd 37 b0 26 bd 6c 8b 73 be
       0.18868355 -0.05113044 -0.040695395 -0.23783654
000060 56 2e aa be 41 f8 95 3e ba 95 75 3e 3f ce 56 3e
       -0.33238477 0.29290965 0.23982897 0.20977114
000070 cb c1 a3 3d 34 6a 1d be c8 4c 47 bf 5b 06 a7 3d
       0.079959475 -0.15372545 -0.77851534 0.08155509
000080 2f bb aa 3e f2 1a 26 bb aa 3e 92 be da 91 49 bd
       0.33345935 -0.002534565 -0.28563434 -0.04921136
000090 20 05 32 3e 24 a2 06 3d 23 2b bd bc 4a 11 4e 3d
       0.17384768 0.032869473 -0.023091858 0.050309457
0000a0 4c a1 da bc bf 8c f7 bd 17 3c dd be d0 d9 a7 be
       -0.02668824 -0.12087392 -0.43209907 -0.32783365
0000b0 84 01 83 be dc b8 b8 bd 76 67 d1 3e 51 0a 89 be
       -0.25587094 -0.09019634 0.40899247 -0.26765683
0000c0 67 01 8b bd 3c 79 fd bd ea e2 f9 bd 9b ec 00 bf
       -0.06787377 -0.12376639 -0.122014835 -0.5036103
0000d0 26 6e 1c 3e 27 0e ac bd 45 b9 9f 3e 3d 59 f5 3d
       0.15276393 -0.08401137 0.31196037 0.119799115
0000e0 79 c4 5c be b2 e3 17 be 20 88 a0 3c 74 51 3c 3e
       -0.21559323 -0.14832953 0.01959616 0.18390447
0000f0 a8 2b c8 be c7 6e 63 bd ff c8 e2 bc e5 c2 54 be
       -0.39095807 -0.055525567 -0.027683733 -0.20777471
000100 8b e0 e6 be e2 8b 70 be be 55 08 3e d9 b6 82 be
       -0.45093188 -0.23490861 0.13313958 -0.25530127
000110 ca 6b e7 bd 34 45 5b be bf 9a ef be f9 a9 34 be
       -0.11299856 -0.21413118 -0.4679775 -0.17642964
000120 75 d2 c6 bc 4a fb 1a be 99 b5 89 3d 5c 6d 05 bf
       -0.024270276 -0.15134922 0.0672409 -0.52119994
000130 b0 25 0c be a9 a4 90 be 64 08 41 3e 28 72 e3 3e
       -0.13686252 -0.28250626 0.18850857 0.44423032
000140 fa 74 98 3d 7d 52 1e be f7 a5 9f be 4f ba 2d bd
       0.074441865 -0.15461154 -0.3118131 -0.042414006
000150 94 a1 83 3d 7d c1 08 bd 3b 75 d2 be a4 1d ab be
       0.06427303 -0.03338765 -0.41105065 -0.33421052
000160 7e b2 e8 bd 03 e8 33 3e 35 e0 f8 be e6 62 35 3e
       -0.1136217 0.17568974 -0.48608556 0.17713508
000170 87 6a 32 bf 5c d5 c2 3a 0a fc ac bc 8c 9f 59 be
       -0.696938 0.0014864611 -0.021116275 -0.21252269
000180 82 39 4f bf d8 92 d1 be e1 05 48 be c8 cc ee 3e
       -0.80947125 -0.40932345 -0.19533493 0.4664061
000190 80 1d 17 3e 38 f4 be b9 5b 2b 0d bf 63 cb df 3d
       0.14757347 -0.0003642158 -0.5514428 0.10927465
0001a0 f2 aa 02 be 66 02 bb bc d1 ad 71 3e b3 f0 cc bd
       -0.12760523 -0.022828292 0.23601462 -0.10006847
0001b0 a9 8e c0 37 5c de 6a 3e 30 a1 da be de 92 08 bd
       2.2954615e-05 0.22936386 -0.427011 -0.03334319
0001c0 d0 c7 46 bb 58 37 f4 be c6 db 2b 3d db db d2 ba
       -0.00303315 -0.47698474 0.04195764 -0.001608725
0001d0 93 f9 85 3c 43 26 0e 3c 50 a5 0b bf 74 e7 53 3e
       0.016354358 0.0086761145 -0.5454912 0.20693761
0001e0 81 81 fc bb 2f a8 af be c2 80 ad 3e 13 11 9a 3d
       -0.0077058678 -0.34308 0.33887297 0.07522788
0001f0 b6 b9 86 bd 6e 27 b1 be 03 6a e3 be 2f e6 53 bd
       -0.0657839 -0.34600395 -0.44416818 -0.051733192
000200 e1 ef a6 bd e2 b8 55 3d eb 27 45 be 31 bb a1 3d
       -0.08151222 0.05217827 -0.19253509 0.07897032
000210 51 7c c9 bd c0 d2 8c 3c 68 f0 70 bd 1d af 81 3c
       -0.098381646 0.017190337 -0.05882302 0.01583057
000220 67 1a 57 3d 4d 6a ca 3d 7f db 68 bd 7c 3c 19 3e
       0.052515414 0.098835565 -0.056849953 0.14964479
000230 4f 94 10 be 6d 7b 73 3e 22 b0 1a be ca 1d 24 bf
       -0.14119075 0.23777552 -0.15106252 -0.64107955
000240 4a 4f 35 bc ee 88 a5 be 54 72 da 3e da fd 6d be
       -0.011066267 -0.32331032 0.4266535 -0.23241368
000250 80 62 88 be 4f 56 be 3c df e6 a1 be b6 9a e1 bd
       -0.2663765 0.023234515 -0.31621453 -0.11015837
000260 7a 89 10 be 7c 12 24 3e 38 cf 31 3e 77 f9 d6 be
       -0.14114943 0.16022676 0.17364204 -0.41987202
000270 da cc 12 be a8 35 7d be 47 50 c7 bd f8 4b e9 b9
       -0.14335957 -0.247275 -0.097321086 -0.00044497824
000280 a6 6e 44 3d 5d d6 41 3e dd 06 fc 3d 94 71 66 bc
       0.047957085 0.1892943 0.123059966 -0.014065165
000290 f8 19 a9 3e 90 53 9e 3b 88 63 fa be 3a 3c 33 be
       0.33027625 0.004831739 -0.4890406 -0.17503443
0002a0 41 25 29 bd 93 76 01 3e f4 cb 8d 3d b8 dc e5 bd
       -0.041295294 0.12642889 0.069236666 -0.112237394
0002b0 23 4c 26 be a1 7b 7c 3c af f6 0a 3d 98 0b 74 bc
       -0.16239981 0.015410335 0.033926662 -0.014895342
0002c0 d8 cd c1 3c 17 ab a2 3b d3 a1 89 bc 4e 27 7c be
       0.023657724 0.004964243 -0.016800797 -0.24624369
0002d0 a5 d5 b2 3c c4 91 ae 3c 8a 41 d1 bd 89 22 81 be
       0.02183039 0.02130974 -0.10217579 -0.2522166
0002e0 f8 58 8e bd ed 85 c4 3d b0 ae 48 3e ab 43 14 be
       -0.06950563 0.09595857 0.19597888 -0.14478938
0002f0 42 f7 16 be 13 9e 74 bd 59 ac 07 be 63 bc af be
       -0.14742759 -0.059721064 -0.13249339 -0.34323415
000300 fd 95 64 bd 9e d8 45 3e 65 61 15 3e f3 f3 13 bd
       -0.055807102 0.19320914 0.14587934 -0.03612132
000310 20 48 63 3e 75 8f e3 3e 60 9d 95 be f7 e1 b1 bd
       0.22195482 0.44445387 -0.2922163 -0.086856775
000320 0a 09 d6 3c 13 8c ac be 34 b5 9c 3d 40 46 68 be
       0.026127357 -0.33700618 0.07651749 -0.22683048
000330 ab e7 85 3d 50 80 f5 bd 90 93 ac 3d ce 46 15 3e
       0.06538328 -0.11987364 0.08426583 0.14577791
000340 00 0d 91 bd 89 42 8a 3d b2 3b 24 3e 46 77 d7 bc
       -0.07082558 0.06750972 0.16038397 -0.026301991
000350 d6 af 37 3e 98 a6 7f 3d 59 42 3f be 05 a8 ac bc
       0.1793817 0.062414736 -0.18677653 -0.021076212
000360 9f f5 1c bd 4e 7d a0 be e2 a8 86 be c0 25 b2 bd
       -0.03832018 -0.313456 -0.26300722 -0.086986065
000370 8d b5 06 bc 5a 7f f6 bb e6 db bd bc 1d 33 fe be
       -0.008221996 -0.0075225057 -0.023176145 -0.4964837
000380 bc ce 4c 3d ce 2a 8f be b3 52 94 3e 41 97 d1 3d
       0.050001845 -0.27962345 0.28969344 0.102339275
000390 38 6f 48 be 9d c2 b7 3d 9e 30 38 3e af 90 44 3d
       -0.19573677 0.089726664 0.17987296 0.047989544
0003a0 05 b2 3b be 68 70 ec 3d 3e 8c 07 3d 8d a2 68 bd
       -0.18329628 0.11544877 0.03309273 -0.056795646
0003b0 e0 74 64 bc 02 37 b2 3d 53 f8 88 bd 90 1f 10 3e
       -0.013943881 0.08701898 -0.06687989 0.1407454
0003c0 6a fa d0 bc fd 19 c0 bc bd 82 1d 3e 8b 20 a9 bb
       -0.025510032 -0.023449892 0.15381904 -0.00516135
0003d0 d0 d2 2b 3e 4a 60 a2 b9 35 3b a4 3d 93 61 e0 3d
       0.16779637 -0.0003097079 0.08019105 0.10956111
0003e0 36 ba c9 bd 2f a3 95 3d e2 88 c1 3e 26 b7 4a bd
       -0.0984997 0.073065154 0.37799746 -0.04949107
0003f0 90 bc e1 bd cc 18 1d be 38 47 6c 3e 20 24 27 bc
       -0.110222936 -0.1534149 0.23074043 -0.010201484

q_c_x.blocks.0.net.2.bias f4 [64]
000000 8f 1a 3f 3d 40 a2 e8 3d d3 e4 0c 3e f5 ce 91 3c
       0.046656188 0.11359072 0.13759165 0.01779888
000010 68 02 3e 3d ab 04 34 be 46 43 5a 3b 22 90 50 bd
       0.046389014 -0.17579906 0.0033304258 -0.050918706
000020 ed c9 cc 3c fb a2 e9 3b f2 ef 08 3c 29 ea b7 3c
       0.02499863 0.0071300245 0.008357989 0.022450523
000030 fe 94 62 bd 83 f9 c6 bd 7b f4 02 bb 80 eb 02 3c
       -0.05531787 -0.09715559 -0.0019982147 0.007990718
000040 c4 18 8e 3d 61 6e cf bc 4b 70 bd be 2d c5 bf bd
       0.069383174 -0.025321187 -0.36999735 -0.0936378
000050 a0 3b 7a 3c a3 23 25 3d b8 d6 8f 3c a8 2a 6d bc
       0.015273005 0.04031719 0.01755844 -0.014475502
000060 25 d3 13 3d 63 9c 99 bd a1 fc 44 3b 0a 06 47 3d
       0.036090035 -0.075005315 0.0030057805 0.048589744
000070 c9 7c 50 be 53 74 c2 bc 50 46 b3 3d 04 a3 60 bc
       -0.20360102 -0.023737108 0.087536454 -0.013710741
000080 d9 f1 20 3d f1 4a 49 bc e7 d5 5e bc 39 1e ba 3d
       0.039293144 -0.012285934 -0.013600803 0.09087796
000090 f9 7c 9c bc 10 25 6f 3e 81 7a 88 3d a9 58 8b 3d
       -0.01910256 0.23353982 0.06663991 0.0680402
0000a0 21 ff 47 bd 38 f5 c6 3d 85 a2 50 3d 52 85 41 be
       -0.048827294 0.097147405 0.05093624 -0.18898514
0000b0 7b 42 09 3c fb 23 37 3e 3a f5 7f bc c5 63 b4 3d
       0.008377667 0.17884819 -0.015622431 0.08808092
0000c0 ab 84 25 3e 8d d2 65 3d ce af cc 3c 01 e7 a8 bb
       0.1616389 0.056109 0.024986174 -0.005154491
0000d0 e8 3b d5 bb dc 60 be bb 4b b0 d1 3c 55 dd 1f be
       -0.0065073855 -0.0058098864 0.025596758 -0.15611775
0000e0 5f bc 91 be 2f 12 ab 3d 06 4d 4e bd 14 fc 9b bc
       -0.28464028 0.083530776 -0.050366424 -0.019041099
0000f0 0f 9b 3a 3b 0c cc ac 3c 8c 82 88 3e 92 42 a9 bc
       0.002847377 0.02109339 0.266621 -0.020661626

q_c_x.blocks.0.shortcut.weight f4 [64, 8]
000000 2a 3d 8c 3e 86 7d 9d bc d3 dd 8c ba 53 c5 37 bd
       0.27390414 -0.019224893 -0.0010747261 -0.044865917
000010 68 11 6e 3e ce d3 42 be 73 7f f3 3d c2 49 23 be
       0.23248827 -0.1902611 0.118895434 -0.15946105
000020 d8 1d 5c be ee 35 41 3d c7 f0 96 3b 90 35 9a bc
       -0.2149576 0.047170572 0.0046063396 -0.018824369
000030 c3 38 63 bb b8 c3 0f be 86 cd 7b 3c 4b 75 9c be
       -0.0034671284 -0.14039505 0.015368825 -0.30558237
000040 9d e9 18 3d 9b ff 41 3d 01 32 0e be 78 73 7d 3b
       0.037332166 0.047362905 -0.13886262 0.003867356
000050 08 14 84 3d b1 8b 69 bd 6a 69 28 be 2d 1b b7 3d
       0.06449133 -0.057017986 -0.16446462 0.0894073
000060 d9 8a 3b be 66 02 af be cb 71 01 be a1 8f 1c 3d
       -0.18314685 -0.34181517 -0.12641065 0.038222913
000070 ce 70 1d bd 55 f5 2a 3f 44 40 26 be d4 45 c7 3d
       -0.038437657 0.66780597 -0.16235453 0.097301155
000080 99 6d 5b 3e 1a 54 89 bd c9 42 3a be 92 fa aa bd
       0.21428527 -0.06705494 -0.18189539 -0.08348574
000090 36 ac 68 3c 76 a0 55 be dc 47 a5 3d 08 e3 ed be
       0.014201215 -0.20861992 0.08070347 -0.46462274
0000a0 28 e6 8f be 02 c2 cb 3e 37 72 13 3d 93 34 89 3d
       -0.28105283 0.39796454 0.035997596 0.06699481
0000b0 15 60 f2 3d 49 96 53 bd ef b6 82 3d 4d 0b 46 3d
       0.118347324 -0.051656995 0.06382548 0.04835062
0000c0 3a f4 68 be a4 41 a7 bd 20 24 fa bd 80 d9 58 bd
       -0.22749415 -0.08166817 -0.122139215 -0.0529418
0000d0 f9 ab 4a be c6 d2 87 3e da 2e 59 be ee d2 8f bd
       -0.19792165 0.26527995 -0.21209279 -0.070226535
0000e0 fd 6d 02 3c 14 ed f4 be 59 1a e5 3d fd 2c 21 3d
       0.007960794 -0.47837126 0.11186666 0.039349545
0000f0 d3 f7 c9 3d 78 33 b8 3e 96 50 fa 3c f2 b3 f8 3e
       0.09861722 0.35976768 0.030556004 0.48574787
000100 97 f6 bc be ce 8a ed 3d a3 c7 ad bc 61 5a 8e bd
       -0.36906883 0.115987405 -0.021213358 -0.06950832
000110 fa eb 90 3f 7e ff 11 bd 91 51 29 bd e4 fe 64 bb
       1.1322014 -0.035644047 -0.041337553 -0.0034941966
000120 4c 77 2a 3f 64 fc a3 bd 14 32 d3 bd 67 f0 c7 bc
       0.6658828 -0.08007124 -0.10312286 -0.024406625
000130 56 35 3b 3d 7a 59 db bd 3d 43 b9 be 9f fe 02 3e
       0.045705162 -0.10710426 -0.3618411 0.12792443
000140 04 82 e0 3e a0 4a d8 3c d7 8c b1 3d 2a 42 ff bc
       0.43849194 0.026402771 0.08669441 -0.03115948
000150 4f c6 64 3e c2 30 21 3e f4 b6 a7 be d0 af 95 be
       0.22341274 0.15741256 -0.3275677 -0.29235697
000160 28 84 0a 3f 0e 9d 7d bd 50 64 d4 3d 99 49 d4 bc
       0.54107904 -0.061917357 0.103706956 -0.025914
000170 58 5d a0 be 95 66 32 be 50 e3 60 be bf 0b b5 3d
       -0.31321216 -0.17421944 -0.21961713 0.08840131
000180 e2 4d ff ba 01 04 c1 ba b1 2c 34 3d 69 b4 9a 3c
       -0.0019478167 -0.0014725925 0.043987934 0.018884854
000190 16 30 cd bd 97 ae 87 3e 50 a7 f8 be 67 86 e8 3e
       -0.10018937 0.2650039 -0.4856515 0.4541504
0001a0 82 e5 16 be 44 62 4e bd 3d 52 18 3f 4a 13 84 be
       -0.14735988 -0.050386682 0.59500486 -0.25795966
0001b0 ee d0 30 3d 82 aa 0d be 43 c6 ee 3b 0b ca 94 3d
       0.043168 -0.13834575 0.007286818 0.07265099
0001c0 85 29 d2 be 51 42 8e 3e f1 e7 be bd 5d 99 8b bd
       -0.41047302 0.2778497 -0.09321583 -0.06816361
0001d0 df fb 0d bf 45 05 5e 3d 04 52 6a be 20 db 81 3e
       -0.5546245 0.054204244 -0.22882849 0.25362492
0001e0 34 c2 1a be 9c 60 b9 bb 96 55 81 bd 67 7a e3 3d
       -0.15113145 -0.0056572687 -0.06315152 0.11107331
0001f0 87 e6 a1 3f 03 07 c9 3a ac bc fb 3d c8 48 6e bc
       1.2648476 0.0015337173 0.12291846 -0.01454372
000200 0f 37 00 be 66 60 aa be 6e d2 34 bd 06 80 76 bd
       -0.12521003 -0.3327667 -0.044145994 -0.060180686
000210 51 c8 e4 3c ff b5 04 be 0d f2 46 be 1c c6 f6 3e
       0.02792755 -0.12960051 -0.19428273 0.4819802
000220 7a 30 25 bd 49 b7 98 3d 30 20 a5 be fc e2 27 3d
       -0.040329434 0.07456834 -0.3225112 0.040987954
000230 af a7 7f be 04 48 12 3f c5 0b 1f 3c c4 07 f9 3d
       -0.2496631 0.5714114 0.009707396 0.12159684
000240 90 05 56 bd 20 c1 57 3c 15 ff 4f 3d f0 5f 14 3d
       -0.0522514 0.013168603 0.050780375 0.036224306
000250 f1 93 3f be 23 74 fe bd c3 34 fd 3d e7 59 05 3e
       -0.18708779 -0.12424495 0.12363579 0.13022576
000260 0d 4b f6 3e 14 fb f7 be f6 6b a2 be 49 57 b1 bd
       0.48104134 -0.48433745 -0.31722993 -0.086592264
000270 4a a6 8f bd b5 c2 5c be 65 4b ee 3b 8e 2a 57 3e
       -0.07014139 -0.2155865 0.0072721713 0.21012327
000280 7b 5d c9 bd c9 bb 0f 3f 93 7f 04 bd a4 47 a3 bd
       -0.09832283 0.5614591 -0.032348227 -0.07972649
000290 e4 d6 1f bd ba e3 95 bb 78 47 bd bd 8b 57 61 be
       -0.039023295 -0.0045742663 -0.09242147 -0.22006051
0002a0 f8 33 9e 3e d2 ca 0b bf 65 25 7a 3b 7d ea 80 3c
       0.30899024 -0.54606354 0.0038169262 0.015736813
0002b0 18 53 36 bd a5 8b 12 be 9d 2e f4 3d b3 43 74 3c
       -0.044512838 -0.14311083 0.11922953 0.014908719
0002c0 27 77 04 be 40 20 77 3d ea 07 34 be 91 fd 9d 3b
       -0.12936078 0.06033349 -0.17581144 0.0048214872
0002d0 ef 27 36 3f 27 b9 4d bc 81 81 64 3c 65 b1 24 bd
       0.71154684 -0.012556351 0.013946892 -0.04020824
0002e0 f9 f6 f8 3e f9 a9 8a 3d bb 74 04 3e 58 df 4d bc
       0.48625925 0.06770701 0.12935154 -0.012565456
0002f0 5e 11 72 3d 0b f5 a6 3d 5a b6 77 3d db d7 3c bf
       0.059098594 0.08152207 0.06047664 -0.7376687
000300 b7 6c a0 3d 5d a8 95 ba 7b ff 87 bd c9 a7 94 bd
       0.07833236 -0.0011417974 -0.06640526 -0.07258565
000310 da 5b df 3e d8 fc 2e bd cb 7a dd 3d 2a 48 fa bd
       0.43624765 -0.0427216 0.108144365 -0.122207955
000320 d0 7d 1a 3e a0 67 0f bc 66 d0 7b bd ee d5 b0 3d
       0.15087056 -0.0087527335 -0.06147804 0.08634554
000330 47 dc d6 3d ee d6 67 bd 83 33 0f 3f 28 36 6a be
       0.10491233 -0.056601457 0.55937976 -0.22872221
000340 0a bb 65 bd cd f7 4b be 09 81 ca be ce 29 b4 3c
       -0.056086577 -0.19918747 -0.3955157 0.02199259
000350 8e 60 bc be 47 48 91 be fc 36 a3 3e 51 0b 99 3e
       -0.36792415 -0.28375456 0.31877887 0.29891446
000360 23 30 a9 3e 61 1e 3c be e0 32 ae 3d c4 77 33 bd
       0.33044538 -0.18370964 0.085057974 -0.04381539
000370 b8 b1 a5 3c da 96 4b be df 65 5f be b0 07 02 be
       0.020226344 -0.19881764 -0.21816204 -0.12698245
000380 36 2b d2 bd 34 d6 6d bd 7d 4c 0b bc 57 4f 8d bc
       -0.10262148 -0.05806561 -0.008502123 -0.017249746
000390 e8 86 cc 3d 15 df 37 3f f8 82 24 3d e6 e3 bc bd
       0.09986669 0.7182477 0.040163964 -0.09223156
0003a0 ea e1 b3 3c b1 bc 85 3c c3 67 06 bd 75 56 23 3c
       0.02195831 0.016325327 -0.0328138 0.009969343
0003b0 84 c1 7b bd d2 be 63 bf 05 c0 b4 3a b5 cc 3e 3d
       -0.061463848 -0.88963044 0.0013790136 0.046581943
0003c0 36 e8 38 3d 09 2a 0e bd 52 92 31 3d d7 50 53 bd
       0.04514333 -0.034708057 0.043352433 -0.051590767
0003d0 64 8c 4c 3e 17 03 1f be 6a 38 28 be c7 c5 d4 3c
       0.1997543 -0.15528522 -0.1642777 0.025973214
0003e0 21 71 43 be 96 22 c4 3d 97 f3 c0 3e 99 c9 81 3c
       -0.19086124 0.09576909 0.37685844 0.0158432
0003f0 e2 eb 16 bf 81 af 71 3b 7e de 41 bc 06 23 f1 bc
       -0.5895368 0.003687829 -0.011832831 -0.029435646

q_c_x.blocks.0.shortcut.bias f4 [64]
000000 62 80 dc bd f3 96 a5 3e b5 b0 17 3f 66 d2 98 bd
       -0.107666746 0.32341728 0.5925401 -0.07462005
000010 9d 30 88 3e c0 e5 cb be ff 30 e6 3d 04 17 88 be
       0.2659959 -0.39823723 0.11239814 -0.2658006
000020 77 24 b2 be 5c 48 6b be ab 66 02 3d 50 db 8b 3e
       -0.34793445 -0.22976822 0.031836193 0.2731576
000030 38 61 06 be 77 98 05 bf 41 9c 88 3e 8e 8e 2a 3d
       -0.13123024 -0.5218577 0.26681712 0.041639857
000040 4a b6 a5 3e 52 e8 6d be c2 fd cc be bf 2d ed be
       0.32365638 -0.23233154 -0.40037352 -0.46323964
000050 18 c0 16 3f 97 44 b1 3e 25 00 90 3e ed 9e 81 be
       0.5888686 0.34622642 0.2812511 -0.25316563
000060 61 f7 e9 3e 70 34 e0 be d9 a5 81 3e d3 13 e4 3e
       0.45696548 -0.43790007 0.25321844 0.44546375
000070 42 75 7e bf e7 50 7a 3f 30 96 80 3e df d8 f4 be
       -0.9939767 0.977797 0.25114584 -0.4782171
000080 7f 7a ab 3e 59 31 68 be c8 a9 00 be 2e 48 ad 3e
       0.33491895 -0.22675075 -0.12564766 0.3384413
000090 61 88 35 bf 53 58 ba 3e c3 f8 65 3d 97 29 ed 3e
       -0.7091122 0.3639551 0.05614544 0.46320793
0000a0 c0 0e 15 be 04 50 55 3e 05 96 54 bd c6 3e 46 bf
       -0.14556408 0.20831305 -0.051900882 -0.77439535
0000b0 64 9f a2 3e 2f fa 07 3f 55 f0 cf 3d 4d ac 95 3e
       0.3176223 0.53116125 0.101532616 0.29233018
0000c0 69 1d 4d 3f 55 df e6 3d 29 72 ac bd a5 90 dd be
       0.80123 0.11273066 -0.08420212 -0.43274418
0000d0 b4 66 ac be 2a c4 8b be a5 ee c3 3e 47 ad d9 be
       -0.33672106 -0.272981 0.3826801 -0.42515013
0000e0 4b 77 1d bf 92 a4 33 3e f3 f7 2b bf d2 38 cd 3c
       -0.6151015 0.17543247 -0.67175215 0.025051508
0000f0 29 b8 03 3d ca 2f 05 3f 43 5a ff 3e 88 49 74 be
       0.03215805 0.52026045 0.49873552 -0.23856175

q_c_x.blocks.1.net.0.weight f4 [64, 64]
000000 ef 06 1e bd 12 80 6e be 92 9e e2 3d 01 e3 77 3d
       -0.03858083 -0.23291042 0.11065401 0.060519222
000010 ae 0c 99 bd 22 73 33 be 99 6f 2d 3d 40 12 72 bf
       -0.074731216 -0.17524388 0.042342756 -0.945591
000020 86 7d 18 3e d9 ef a9 3c f8 d2 ee 3d 39 c4 b6 be
       0.14891633 0.020744251 0.11661333 -0.3569658
000030 fe b6 59 3d a6 c2 2d 3e 3f e5 18 bf 38 61 38 3e
       0.05315303 0.16968784 -0.597248 0.18005836
000040 a2 50 d8 be 48 ba 53 be 5d 51 9d 3d c2 78 10 bf
       -0.42249018 -0.2067653 0.076815344 -0.5643426
000050 7c b6 af 3c b3 16 1d be f4 28 2e 3e 8f 04 b7 be
       0.02144932 -0.1534069 0.1700781 -0.35745665
000060 bf 78 4f 3e 20 4a e2 bd 4e 63 37 be e6 aa 16 3e
       0.20260905 -0.110492945 -0.17908975 0.1471363
000070 46 fa c4 be 81 1c e0 3c 4f 6b 88 3e e3 ea 99 be
       -0.38472193 0.027357342 0.2664437 -0.30062017
000080 02 d0 22 3e b6 cf c5 3d 38 bc 4b bc 67 84 e0 bd
       0.15899661 0.09658758 -0.012435012 -0.10962754
000090 aa c1 c9 3d f6 ef 99 bc fc 36 98 3e 91 d5 ce 3d
       0.098513916 -0.01879118 0.2972945 0.10099328
0000a0 87 3c e3 bd 20 3c 83 be d9 3e 7e 3d 45 40 95 3c
       -0.11095529 -0.2563181 0.062071655 0.018219123
0000b0 22 b7 6b 3e bb 7c be 3d e4 fb 73 be 04 3c 60 be
       0.23019078 0.09301134 -0.23826557 -0.21897894
0000c0 a2 c4 10 3d e6 1b 99 3d ee 6a 5c be 40 bc 56 3d
       0.035343774 0.07476024 -0.21525165 0.052425623
0000d0 78 e8 4f bc 40 93 0d be 62 73 cf be c5 40 56 be
       -0.012689702 -0.13825703 -0.40517718 -0.20923145
0000e0 6d 26 ac 3d e6 f5 af 3d b4 9c 7c be bd ef 93 be
       0.08405767 0.08591823 -0.24669152 -0.28893843
0000f0 dc 65 ab bd b1 66 5e bd 34 df 0d 3d 0f 87 58 be
       -0.083690375 -0.054297153 0.03463669 -0.21145271
000100 96 bb e7 3d 4e 3c 49 be b2 dd 1c 3e 2a 9b 03 bf
       0.11315076 -0.1965191 0.15318945 -0.51408637
000110 4b fa 77 be 08 bc ad 3c b8 52 0f 3e 9b f7 ae be
       -0.24216573 0.021207824 0.13996398 -0.34173283
000120 7c 89 4b 3f 48 11 65 3e ab 40 ad bd 6c 50 45 3e
       0.7950666 0.22369874 -0.084596 0.1926896
000130 29 e4 5a bf 40 98 c5 bd 31 ab 61 be b2 bf 11 bf
       -0.85504395 -0.0964818 -0.2203796 -0.5693313
000140 f7 c2 8f bb 5a c8 cf bd 0b 65 f8 be c2 43 81 bd
       -0.0043872553 -0.10145636 -0.4851459 -0.06311752
000150 65 09 2b 3d 85 6c c5 3d 6f 64 8b bd 4d 8b 88 be
       0.041757006 0.09639839 -0.068062656 -0.26668778
000160 07 ce c4 3d cc bd da bd ee 75 1a 3d d5 8b b4 3d
       0.09609609 -0.10680732 0.037710123 0.08815733
000170 14 fd 78 be 8f be a4 3d 19 42 1e bd e6 64 a5 be
       -0.24315292 0.08044159 -0.038637254 -0.32303542
000180 8c 63 81 3e 1f 87 14 3f b1 f6 62 bd 7d 3c 6b 3d
       0.2527126 0.5801868 -0.055411045 0.057430733
000190 a3 32 0f bf 0b c3 94 3d 64 a8 4c 3d f2 24 f9 be
       -0.5593664 0.07263764 0.049965277 -0.48661
0001a0 fb 7f a3 be 2a a9 13 3e f7 a1 23 be 47 bd 24 be
       -0.3193358 0.1442 -0.15979753 -0.16087829
0001b0 3d 33 aa be b0 bf 2f be 45 9c 17 3e e8 42 bd be
       -0.33242217 -0.17162967 0.14805706 -0.36965108
0001c0 16 46 83 be fd ef 33 be fb 4e e7 3d 50 75 fe 3d
       -0.2563941 -0.17572017 0.11294361 0.12424719
0001d0 e6 31 45 bd 1c a6 5b 3e 38 2b 66 be 4f 11 81 bf
       -0.04814329 0.21450084 -0.22477424 -1.0083407
0001e0 f1 e9 88 3e 97 8f 1d 3e 96 16 fa 3d 25 c9 9a bd
       0.26740983 0.15386806 0.12211339 -0.075578965
0001f0 b1 ef fc 3c b3 96 1e bf fa 54 b9 3d 04 06 9a 3d
       0.030876013 -0.619487 0.09049411 0.07520679
000200 15 02 39 3d 49 bb 1d 3c 07 c9 b0 bb df ec 67 be
       0.045168 0.009627172 -0.005395058 -0.22648953
000210 da 0a 96 3d af fe 0a 3e b8 83 e2 3d e7 48 e6 be
       0.073262885 0.13573717 0.110602796 -0.44977495
000220 4d 53 78 bf ee 6f 31 bf 4b de cf be 08 90 ba 3e
       -0.97002107 -0.69311416 -0.40599284 0.36438012
000230 19 91 0f bf c8 4a bf bc 28 21 c9 bc 21 e8 8f 3d
       -0.56080776 -0.023351088 -0.024551943 0.07026697
000240 0a 9a 70 be 1a 6f 7b be 8b f5 0d bf 69 1e c7 be
       -0.23496261 -0.245541 -0.55452794 -0.3889039
000250 ea 04 45 bd a3 0d 72 3e 54 8e d6 be 88 43 7e be
       -0.04810039 0.23638014 -0.41905463 -0.24830449
000260 c7 24 a3 3d c3 41 07 bf 06 7f 82 be b9 3b 06 3e
       0.07965999 -0.5283472 -0.25487536 0.1310872
000270 8f 77 74 be 06 a5 f5 bc 53 dc ba bd a3 b8 a5 be
       -0.23873733 -0.029985916 -0.09124055 -0.3236743
000280 ae eb 2c 3d c9 6d ad 3e 02 15 59 be 77 3b ac 3b
       0.04221695 0.33872822 -0.2119942 0.005256112
000290 6c e0 b6 be d7 d1 07 be 92 c9 0b 3e a4 23 dc 3c
       -0.35718095 -0.13263641 0.13651112 0.026872464
0002a0 e0 b8 29 3e 5a 2b 04 bd d6 ec 2e bd bd 9f 88 bd
       0.1657443 -0.032267906 -0.042706333 -0.06671093
0002b0 fa 74 8b be 2f 7b 12 bd c4 a3 37 3d cb c4 41 3e
       -0.27237684 -0.03576201 0.044833913 0.18922727
0002c0 12 6b 9c 3c 15 e2 a3 3d ab 95 3d be ca 29 34 3d
       0.019094024 0.08002106 -0.18514125 0.043985166
0002d0 66 8d e1 bd 3c 58 70 be 17 75 cb 3c 7f c3 27 3e
       -0.11013298 -0.23471159 0.024836106 0.1638317
0002e0 f8 8c a3 be 0f ab 6c 3e 73 ca 0c bf 79 e0 d1 bd
       -0.31943488 0.23112129 -0.54996413 -0.10247893
0002f0 d5 95 40 be 25 e1 04 3e b2 fd 1d bd df 88 89 be
       -0.18807156 0.12976511 -0.03857202 -0.26862237
000300 66 20 0e 3e 3f 94 32 be 9a 1b 01 bd 32 1e 35 3e
       0.13879547 -0.17439364 -0.031520464 0.176873
000310 8e 37 08 3d ee 8a 6b 3d 62 b8 34 3e 69 f1 84 be
       0.033256106 0.05750554 0.17648461 -0.2596543
000320 10 ae a5 3e 6b 6a 61 3d c9 cb 95 bc 8d 97 24 3e
       0.32359362 0.05503313 -0.018285649 0.16073437
000330 ec fb e7 bd 8a 36 cc bd e2 b1 0e 3d 6a 4e 28 3e
       -0.11327347 -0.0997134 0.03483761 0.16436163
000340 8f 61 90 be ab 30 af 3d 2b 8a ba be a8 b9 f5 be
       -0.2819943 0.085542046 -0.3643354 -0.47993207
000350 6c e6 16 bf 9a fc 5e 3e f8 80 c3 bd 5d 6d fb bd
       -0.58945346 0.21776047 -0.09546083 -0.12276719
000360 52 c1 eb bc 82 5f 88 3e 40 ad 1b be f3 da c6 3d
       -0.028778706 0.26635367 -0.15202808 0.0970973
000370 ca 5a d3 be 5b c1 03 be cb 96 6c 3d 4e 6f 8c bd
       -0.41280204 -0.12866728 0.057760995 -0.06857167
000380 7f 23 75 3d bf 9f 40 be d1 1d 36 3c a1 41 1f 3d
       0.059848305 -0.18810938 0.011115507 0.038880948
000390 f3 34 43 bd cb dd a2 3d f2 c9 e1 bd bc 36 9a bd
       -0.04765792 0.0795246 -0.11024846 -0.07529971
0003a0 70 99 0c 3e 38 3a 10 3e e1 4a 8b 3c c9 52 10 3d
       0.13730407 0.14084709 0.017003478 0.0352352
0003b0 b8 13 27 be df d9 1c bd ae 45 91 bd 48 6b 47 3d
       -0.16316116 -0.038293716 -0.070933685 0.048686296
0003c0 67 9d f3 bc 83 21 19 3e b4 4b f6 3c 1e d8 5d bd
       -0.029738141 0.1495419 0.030065395 -0.054161184
0003d0 17 27 f7 bd 44 cf b8 3d 33 c8 84 be b1 61 11 be
       -0.12068003 0.09023908 -0.2593399 -0.14197423
0003e0 e7 2d 92 3c 38 3d 41 bc 50 6c 72 be 49 0e 8c 3c
       0.017844154 -0.011794381 -0.2367413 0.017096655
0003f0 e9 4c 34 be d7 ea 3b 3e d3 c8 19 3e 4d 36 82 3c
       -0.17607464 0.18351303 0.15018015 0.015895033

q_c_x.blocks.1.net.0.bias f4 [64]
000000 31 9a f3 bc 7d f9 48 3e 42 55 e1 3d 45 77 5c 3e
       -0.02973661 0.19626422 0.1100259 0.21529873
000010 2d 88 43 3e a0 40 0f 3e 43 5d c4 bd 4c 9f 6d 3e
       0.19094916 0.13989496 -0.09588101 0.23205298
000020 58 4f 78 be e1 4e c3 3d 8a 3b 9d 3e c7 fe 6e be
       -0.24249017 0.09536529 0.30709487 -0.23339377
000030 4a 31 04 bd d3 18 a0 bb 3c c3 3e bf ac 03 32 3d
       -0.03227357 -0.004885772 -0.74516654 0.043460533
000040 54 c3 45 be 8b 44 b9 3d 8e 08 04 3e 35 da 37 be
       -0.19312793 0.09046277 0.12893888 -0.17954333
000050 ec e4 22 bb 1d 87 ba 3e 8c e2 2a be 9e 49 a6 3d
       -0.0024855686 0.36431208 -0.16687983 0.0811951
000060 fb 7f 33 bd c4 e3 70 3c 9a 37 37 bf 5d c4 dc bc
       -0.043823224 0.014702741 -0.71569216 -0.026949102
000070 5f 3a 13 3e 12 b5 fa ba e0 55 1f 3d 01 0d a1 3e
       0.14377736 -0.001912745 0.038900256 0.31455234
000080 85 5d 8b be 33 37 32 bd a7 5f 70 bd d0 ba 12 be
       -0.27219787 -0.043509673 -0.05868497 -0.14329076
000090 d9 a0 24 3d 5a b7 42 bf 1c 26 30 3c 07 ce 4c bf
       0.04019246 -0.7606102 0.0107512735 -0.8000187
0000a0 96 96 54 be 93 6d 8e 3d ff 23 cd be 3a f8 8b bd
       -0.20760569 0.069544934 -0.40066525 -0.06834455
0000b0 3f a7 0f bd 94 14 be be d6 29 a9 3c e6 87 fe bd
       -0.035071608 -0.37125075 0.020649832 -0.12428264
0000c0 35 be ea bb fa bc dc bd ef 0e 7e 3d 22 06 97 3e
       -0.0071637877 -0.10778232 0.06202596 0.29496866
0000d0 99 c6 49 3e 6c 44 3b 3d 7a 74 dc 3b 83 5e 5d 3e
       0.19704665 0.04571955 0.0067277523 0.21618085
0000e0 39 a0 1c bd 56 5b 60 bd 6d 65 f6 bc 56 77 84 bf
       -0.038238738 -0.054774605 -0.03007766 -1.0348918
0000f0 39 8b c5 3e f4 42 7b 3e 58 2f ed bd b1 e0 03 3e
       0.3858278 0.2453726 -0.11581296 0.12878682

q_c_x.blocks.1.net.2.weight f4 [64, 64]
000000 d8 79 fc bd da d5 ff 3e 17 44 ba 3e b3 22 56 3c
       -0.12327927 0.49967843 0.36380073 0.013069796
000010 45 c8 9e 3e fc ae 0e be b7 94 87 3d c5 9a de 3e
       0.3101217 -0.13933939 0.06620162 0.43477455
000020 2f d5 1f be 1d f8 d2 3d 94 9f bb bd 58 2e 97 be
       -0.15608667 0.1030123 -0.091612965 -0.29527545
000030 cf 7a 66 be 8d 92 8e bd 13 dd 98 be 74 16 55 3e
       -0.22507785 -0.06961546 -0.29856166 0.20809346
000040 f8 89 76 bf e5 d3 c3 3e a5 b0 60 3e b4 fd 90 be
       -0.96304274 0.382476 0.21942385 -0.2831856
000050 5a ce 19 be 96 3d a4 be f1 c9 22 be 47 9c 55 3e
       -0.15020123 -0.32078236 -0.15897347 0.20860396
000060 d8 1c ad bd 68 33 58 3d 9c aa c1 be 80 b0 8f 3d
       -0.08452767 0.0527834 -0.37825477 0.070160866
000070 9f 26 22 be cb 39 bf 3e 28 5d a9 3d 63 2f d2 be
       -0.15835045 0.3734878 0.08269721 -0.41051778
000080 d0 55 2b 3e 9d 00 0a be f1 35 2d 3d 33 d3 80 3e
       0.16731954 -0.13476796 0.04228777 0.25161132
000090 97 9b 43 be e2 a9 04 3f 1d 48 34 bc 82 dd 68 be
       -0.19102322 0.5182172 -0.011003521 -0.22740749
0000a0 1e 52 a6 be a7 cd 11 3e 25 17 09 3c 24 97 06 3e
       -0.32484525 0.14238606 0.0083673345 0.13143593
0000b0 7d 1e b2 3d a7 a1 23 be d1 40 a6 3e 9b 36 99 3d
       0.086972214 -0.15979634 0.32471326 0.07481118
0000c0 5d e9 56 3e 46 0a 05 be 31 c8 21 bd 4b bb 73 bd
       0.20987459 -0.129922 -0.039497558 -0.05950479
0000d0 3d 96 65 be 0e fd 0b 3d d5 43 92 3d 1c 14 ac be
       -0.22420593 0.03417688 0.07141844 -0.33609092
0000e0 a6 8b aa bc e7 74 7e 3e 05 48 66 3d 4d b0 17 bf
       -0.020818543 0.24849282 0.056221027 -0.5925339
0000f0 fd 13 1b 3f e5 61 34 3e 37 95 d2 3e 61 72 07 3f
       0.60577375 0.17615469 0.41129467 0.52908903
000100 a9 ed 9f bc 8a 45 e4 bd a9 44 25 3e 71 ad c1 bc
       -0.019522505 -0.11146076 0.16139473 -0.023642274
000110 4e 06 eb 3e 74 0a d4 3d 8c b5 8d bd c9 12 76 3e
       0.45903248 0.10353556 -0.06919393 0.24030603
000120 21 72 46 be 00 67 0c 3c 3c be 94 be ea 70 3a be
       -0.19379474 0.008569479 -0.29051387 -0.18207136
000130 2f 66 8c be ae 18 e3 3b d9 74 73 3e b4 9d b9 bc
       -0.2742171 0.0069304323 0.23775043 -0.022658207
000140 07 4a 30 be 76 74 59 3e 22 ee 56 3e 38 01 a6 3b
       -0.17215739 0.21235833 0.20989278 0.0050660633
000150 15 5b 93 bd 0a 13 1f be 43 9c bc 3d 0b e0 a5 3d
       -0.07195107 -0.15534607 0.09209492 0.080993734
000160 cc f2 84 bc d8 87 08 3e c1 e7 07 be c4 d0 c8 3c
       -0.016229056 0.1333307 -0.13272001 0.02451361
000170 3c 20 6e bd f9 ad 03 3e ec 93 53 bd fc 5c 55 be
       -0.05813621 0.12859334 -0.05165474 -0.20836252
000180 91 86 46 3e 2f ca c5 be a5 7b 40 3e d6 b0 b8 3b
       0.1938727 -0.38630816 0.18797167 0.005636315
000190 40 9f ba bd 66 14 a8 be e4 42 08 bd 4f e6 67 bc
       -0.09112406 -0.32828063 -0.033266917 -0.014154031
0001a0 ae a1 93 be 86 e3 21 bd a3 77 86 be ec 58 95 3e
       -0.2883429 -0.039523624 -0.2626315 0.29169405
0001b0 08 93 25 3e 1a 8f fc be fd c8 95 3e 2e 79 99 be
       0.16169369 -0.49327928 0.29254904 -0.29975265
0001c0 1d 4b 8b 3c 70 1c 2d be 96 f7 4d 3e 35 aa 2f be
       0.01700359 -0.1690538 0.20113978 -0.17154773
0001d0 4c 26 a5 3d 68 2b 93 3e b1 2e 0e 3d 79 be 64 bd
       0.08063945 0.28744054 0.034712497 -0.05584571
0001e0 b5 8b a8 be 12 01 24 3d 1a a1 3e be c9 db 91 be
       -0.32919088 0.040040083 -0.18616143 -0.28487995
0001f0 5b 30 24 3f 97 63 f7 bc 35 bc cb bc 4a 86 55 3e
       0.64136285 -0.030198855 -0.024870018 0.20852008
000200 de ab 95 be 94 26 b3 3e 24 a2 2b 3e ca 58 12 3e
       -0.29232687 0.3499037 0.1676107 0.14291683
000210 e2 a2 0f be 5d e5 61 be 56 bc 55 3d 18 80 92 3e
       -0.14026979 -0.22060151 0.052181564 0.28613353
000220 2e ea 43 be 29 6c 3a 3e d4 8a 91 3e bd ec ba 3e
       -0.19132301 0.18205322 0.2842623 0.36508742
000230 90 60 2a 3d 46 32 2c 3e 2c e0 05 be 55 ac cc bd
       0.041595995 0.16816053 -0.13073796 -0.09993807
000240 3b d4 74 3d 45 c1 b6 be 9d aa b1 3e fd 49 6a be
       0.05977271 -0.35694328 0.3470048 -0.22879787
000250 83 f0 5f bd fb 7c 63 3e d6 7d b5 be e7 55 b6 bd
       -0.05467273 0.22215645 -0.35447568 -0.08903103
000260 42 7c 32 be 92 79 ee 3c 69 83 bd be 9c ab a1 bc
       -0.17430213 0.029110704 -0.3701432 -0.01973515
000270 dc 5a c2 be a5 8f af 3d 07 3a 2a bd 9d 74 e3 3e
       -0.37959945 0.0857232 -0.041559245 0.44424906
000280 c2 e5 1a be b5 ed e7 3d bb ac 87 3c 71 84 29 bd
       -0.15126708 0.11324636 0.016561856 -0.04138607
000290 18 c3 3e 3e a3 76 9d be b0 a8 b0 3c 25 4b 85 be
       0.1862911 -0.30754575 0.021564811 -0.26033893
0002a0 f0 34 0a 3e c8 ca 20 3e 91 a1 56 be 47 27 9e bd
       0.13496757 0.15702355 -0.2096007 -0.07722335
0002b0 5c 3e 02 3e 5e 28 89 be 49 d3 7a be fd 6c 9a 3d
       0.127191 -0.2678861 -0.24494661 0.07540319
0002c0 e7 6e 18 3e 26 0c 94 3d 22 4e 99 3d c5 87 14 3e
       0.14886056 0.0722888 0.07485606 0.14504917
0002d0 ba 0d c2 3e 64 66 f6 bd 88 36 b4 bb a3 33 13 be
       0.37901098 -0.12031248 -0.0054996647 -0.14375167
0002e0 a9 20 08 3e 79 6f ba bd e4 93 06 3e 56 d1 25 3e
       0.13293709 -0.09103293 0.13142353 0.16193137
0002f0 2e 62 14 be f6 79 06 3e ae 2b cb 3d 3e e5 4f bc
       -0.14490578 0.13132462 0.099204406 -0.012688933
000300 13 b9 6d be 25 a8 c5 bd 2a dd 1d 3e 94 90 45 3e
       -0.23215131 -0.09651212 0.15416399 0.19293433
000310 0a 34 3a be ca c1 ad 3e 93 ca 86 3e 9c d6 fe 3e
       -0.18183914 0.33936912 0.26326427 0.4977311
000320 57 d7 8b 3e 9d 1f 8a 3e 9c 0f 68 3d 97 a4 87 bc
       0.2731273 0.26977244 0.05665551 -0.016557975
000330 09 9d aa 3c 50 f3 25 be ec 12 7e 3e ad 19 82 3e
       0.020826833 -0.16206098 0.24811906 0.25410214
000340 ee d2 b4 3c 2a d2 09 3f b9 c9 06 3d e6 f7 65 bc
       0.022073235 0.5383631 0.03290722 -0.014036154
000350 60 b9 6b be a1 0d 7c 3d 21 2f 89 3e 16 79 82 be
       -0.23019934 0.061536435 0.2679377 -0.25483006
000360 b3 6c b6 bd 42 cd a6 be 39 3c 30 be a7 f6 04 3d
       -0.089074515 -0.32578474 -0.17210473 0.03246179
000370 4a 25 bd 3c 6e 5e 9a 3c 72 d5 11 bd f8 ed b0 3d
       0.02308907 0.018843856 -0.035603948 0.08639139
000380 cb b0 0e 3e 27 58 7c 3e df 10 2b bc 58 34 29 3e
       0.13934629 0.24643002 -0.010441034 0.16523874
000390 59 e5 10 3c 65 ae 5c 3b 11 de 69 bd d1 83 11 bd
       0.008843743 0.0033673283 -0.057096545 -0.0355261
0003a0 23 67 5f 3d 7d 29 bf bd 5a 09 ac 3e 03 83 fd 3d
       0.05454172 -0.09334085 0.33600885 0.12378504
0003b0 62 ac c3 bc 5d 1a bb bc 88 aa 33 be 90 fb 9a be
       -0.02388591 -0.02283972 -0.17545521 -0.30270052
0003c0 19 09 5a 3c f4 0b 59 be cf 82 ff 3b 23 ed 38 be
       0.013307833 -0.21195966 0.007797576 -0.1805921
0003d0 5b 63 16 3e 2c 86 c2 3d 5f a6 73 bc 95 2f 17 be
       0.14686339 0.094982475 -0.014871209 -0.14764245
0003e0 e4 07 aa bd 53 72 dd be d1 81 67 3d be cb 56 bf
       -0.08302286 -0.43251285 0.056520287 -0.83904636
0003f0 5f a2 af be 52 e6 71 3d 7f 7f d9 bc 33 16 84 3d
       -0.34303567 0.05905754 -0.026550053 0.06449547

q_c_x.blocks.1.net.2.bias f4 [64]
000000 12 e7 a7 bd 64 a8 b0 bc 40 47 9a 3e ea c5 05 be
       -0.0819837 -0.02156467 0.30132484 -0.1306378
000010 ba d6 35 3e 1d 71 fe 3d 51 51 b1 3e 17 b6 3f 3d
       0.17757693 0.124239184 0.34632352 0.046804514
000020 7e d7 7c 3d 3b c1 40 3d c4 3e 98 3d 72 b0 b4 3d
       0.061728947 0.04705928 0.074338466 0.08822717
000030 a7 77 6a bd f4 01 c0 3d 28 58 21 3e 0d 99 3b 3d
       -0.057243016 0.093753725 0.15756285 0.045800257
000040 32 51 53 3c 18 19 bb 3d 88 ca 86 be de 7e bc bd
       0.012897776 0.09135646 -0.26326394 -0.092038855
000050 3a 1c 29 3d 05 7e ed bc eb 36 8a 3e 11 04 9c bd
       0.041286685 -0.028990755 0.26995024 -0.07617963
000060 db 09 85 3e fe 8f 05 3e 12 e7 3e bc 3a 9e 6b 3d
       0.25984082 0.1304321 -0.011651771 0.057523943
000070 f7 b9 ae be 37 ec 96 3d b7 9c 9b bd 7c 39 b2 3d
       -0.34126255 0.07369273 -0.0759825 0.087023705
000080 96 9f 7e 3d 1a dd e2 3d 68 16 e2 3c ae de a8 3d
       0.06216391 0.11077328 0.027598575 0.08245598
000090 19 7a 25 3c ba 54 7c 3d 6a 83 6f 3e 21 4a b9 3d
       0.010099911 0.06160424 0.23389974 0.09047342
0000a0 63 0e 2c bd 59 1f 93 3c 3a fd 72 3d 43 73 5e be
       -0.042005908 0.017959284 0.059323527 -0.21723656
0000b0 07 ad a7 3b 71 12 8b 3e 82 b7 f4 bd 2b 16 0a 3e
       0.005117062 0.27162507 -0.11949064 0.13485019
0000c0 c9 f1 90 3e 4d 47 c2 3a ae 2b 02 3e 22 f7 df bc
       0.28309467 0.0014822275 0.12711975 -0.027339522
0000d0 1e ea b2 3d d3 1e 2e 3d ae e0 d3 3d 51 76 30 3d
       0.087360606 0.042509865 0.103455886 0.043081585
0000e0 17 a7 a6 ba 99 0b ec 3d 01 b5 9c bb eb 81 6e 3e
       -0.0012714592 0.115256496 -0.0047823195 0.23291747
0000f0 ed c7 03 3c 7b f2 91 3d 26 7c 94 3e ce db 21 bd
       0.0080432715 0.071263276 0.29000968 -0.039516263
